08/check_point_epoch_9.pth (torch, 6055 bytes, 2 tensors)

fc1.weight f4 [4, 300]
0	0xbef681dc	-0.4814595
1	0xbd5e5343	-0.054278623
2	0xbe1472cf	-0.14496921
3	0x3f539944	0.8265574
4	0x3e8a0162	0.2695418
5	0xbf2d923d	-0.67801267
6	0xbf476f85	-0.7790454
7	0x3f02ceeb	0.5109698
8	0x3f30ca40	0.6905861
9	0xbdfdcd56	-0.1239268
10	0xbe22ab29	-0.15885605
11	0x3f9afe3d	1.2108837
12	0x3ecb48f5	0.397041
13	0x3bc708e3	0.0060740574
14	0xbf4b63ea	-0.7944933
15	0x3e4b973a	0.19881907
16	0xbe543761	-0.2072425
17	0xbf225b8a	-0.6342093
18	0x3f56ab59	0.83855206
19	0xbe309ed9	-0.17248096
20	0x3eaf4fe8	0.3424065
21	0xbf0f0d7e	-0.5587996
22	0x3e8549df	0.26032922
23	0xbeff36a1	-0.49846366
24	0x3f418777	0.7559733
25	0x3fb319a8	1.3992205
26	0xbe084e90	-0.13311219
27	0x3e10d6bc	0.14144415
28	0x3e6dc2e7	0.2321888
29	0x3f6e633e	0.9312018
30	0x3ee7c7c0	0.45269585
31	0xbf5bd4c3	-0.85871524
32	0x3edf13e3	0.4356986
33	0xbf3a6453	-0.7280933
34	0xbf0551a7	-0.52077717
35	0x3f8ceff0	1.1010723
36	0x3f02744e	0.50958717
37	0xbd808f31	-0.062773116
38	0x3e717106	0.23578271
39	0xbf10d80d	-0.5657967
40	0x3d2e96bd	0.042624224
41	0x3e6a0460	0.22853231
42	0x40071022	2.1103597
43	0xbf292960	-0.6607876
44	0xbf998b4f	-1.1995639
45	0xbeb338fb	-0.3500441
46	0xbed5e489	-0.4177592
47	0xbdef814d	-0.11694584
48	0xbd96a2a6	-0.073552415
49	0x3ddfda3b	0.10930296
50	0x3f87a57b	1.0597376
51	0xbf29af0c	-0.66282725
52	0x3f8bc30b	1.0918897
53	0x3ede766e	0.4344973
54	0xbe804bde	-0.25057882
55	0xbe8cdd34	-0.27512515
56	0xbf95bd4b	-1.1698393
57	0x3f36722c	0.7126796
58	0x3f974696	1.1818416
59	0xbfaa1d9d	-1.3290287
60	0xbf241fe3	-0.64111155
61	0xbe943f0b	-0.28954348
62	0xbf43a01d	-0.7641619
63	0xbead39ad	-0.33833066
64	0x3ea50713	0.3223196
65	0xbf451954	-0.7699177
66	0x3f184f3c	0.594959
67	0xbf6dee71	-0.9294196
68	0x3f441212	0.76590073
69	0x3d9dd0b8	0.077058256
70	0xbf800932	-1.0002806
71	0xbf3b1d4c	-0.7309158
72	0x3f87b078	1.0600729
73	0xbda06c25	-0.07833127
74	0x3f3bcba8	0.7335763
75	0xbeba6348	-0.3640387
76	0xbebcf00a	-0.36901885
77	0x3f8ff41e	1.1246374
78	0xbe7aff66	-0.2451149
79	0xbe210d9c	-0.15727848
80	0xbf22532c	-0.6340816
81	0x3f82ff26	1.0234115
82	0xbf118e6f	-0.5685796
83	0x3f9cb1a9	1.2241718
84	0x3fc47b17	1.5350064
85	0x3f5ab06a	0.85425436
86	0xbea62805	-0.32452407
87	0xbe1df5fb	-0.15425865
88	0x3f28ed3f	0.6598701
89	0xbeeafc00	-0.45895386
90	0x3eb3acea	0.3509286
91	0xbea4e9ec	-0.32209718
92	0xbf1b5f3a	-0.6069218
93	0x3facc5b7	1.3497838
94	0xbfbf4321	-1.4942361
95	0xbf93fb94	-1.156115
96	0x3e9c5531	0.30533746
97	0xbeb462fb	-0.35231766
98	0x3e8dee77	0.27720997
99	0xbed4bb8a	-0.4154933
100	0xbf1736b9	-0.59067875
101	0xbbb011e8	-0.0053732283
102	0xbe811dc9	-0.25218037
103	0x3f8d86e5	1.1056792
104	0x3ef8e005	0.48608413
105	0xbe823764	-0.25432885
106	0x3dbdfb76	0.09276478
107	0x3e9f2f51	0.31090787
108	0xbf46a517	-0.7759566
109	0xbdd306e2	-0.10304047
110	0x3d8088b7	0.06276076
111	0xbed598b2	-0.4171806
112	0xbf624695	-0.8838895
113	0xbe0ae51f	-0.13563965
114	0xbe59bb4c	-0.21262854
115	0xbe427228	-0.1898886
116	0x3f81073d	1.0080334
117	0x3f79c34d	0.9756363
118	0xbd6deeb4	-0.058088973
119	0x3e6b92de	0.23005244
120	0x3f60378f	0.87584776
121	0x3f664f0a	0.89964354
122	0x3e8d65ee	0.2761683
123	0x3f24c1a5	0.6435798
124	0xbe839b8c	-0.2570461
125	0xbf291e13	-0.66061515
126	0xbef54557	-0.47904465
127	0xbf5e3d44	-0.86812234
128	0xbe355855	-0.17709477
129	0xbb4d8e4c	-0.0031365333
130	0xbe98b4b1	-0.29825357
131	0x3f775798	0.9661803
132	0x3f9d8ac1	1.2307969
133	0xbfd258dc	-1.6433368
134	0xbf12c668	-0.57333994
135	0xbec3221a	-0.38111955
136	0xbf82ecc3	-1.0228504
137	0xbe9f03a7	-0.31057474
138	0xbf34a06a	-0.7055727
139	0xbd849f5c	-0.06475708
140	0xbe831481	-0.2560158
141	0xbfc80f08	-1.5629587
142	0x3e3ba7ff	0.18325804
143	0xbed5b0e9	-0.41736534
144	0xbf387c60	-0.7206478
145	0xbfce1591	-1.6100332
146	0xbf60ca2b	-0.87808484
147	0xbe3e0d7e	-0.18559834
148	0x3edac515	0.42728487
149	0x3e4fc8b6	0.20291409
150	0xbecc7f15	-0.39940706
151	0xbc68866d	-0.014192206
152	0x3f1eb0a4	0.6198828
153	0xbe6a40f3	-0.22876339
154	0xbf2f1a84	-0.68399835
155	0x3fde9a1c	1.739078
156	0xbeb3877b	-0.350643
157	0x3f5444a4	0.8291724
158	0x3e878ead	0.2647604
159	0x3f174029	0.59082276
160	0xbe9632e7	-0.2933571
161	0x3d511744	0.05104758
162	0x3e60024a	0.21875873
163	0xbf0382a0	-0.5137119
164	0x3f2b4241	0.6689797
165	0x3dfd7d32	0.12377395
166	0xbd23b994	-0.039971903
167	0xbdc3a528	-0.095529854
168	0x3f86c41c	1.0528598
169	0x3f384594	0.7198117
170	0xc0048f71	-2.071255
171	0x3e1aac9d	0.15104909
172	0x3f1e1e28	0.61764765
173	0xbe12abe3	-0.14323382
174	0x3f4f8270	0.81058407
175	0xbf2a8714	-0.6661236
176	0x3dcf2fc5	0.10116533
177	0xbeb84e31	-0.35997155
178	0x3f39332e	0.7234372
179	0xbf9d2066	-1.2275512
180	0xbdfdc96d	-0.123919345
181	0xbf9efb20	-1.2420387
182	0xbf462bbe	-0.77410495
183	0xbba05b37	-0.004893686
184	0x3ee543cd	0.4477829
185	0xbf93b53d	-1.1539685
186	0x3f87549d	1.0572697
187	0x3fed8e47	1.8559045
188	0x3f03ffa1	0.51561934
189	0x3d3bd458	0.045856804
190	0xbf46f995	-0.7772458
191	0xbe30b0be	-0.17254922
192	0xbf9dbf10	-1.2323933
193	0xbd3fd96c	-0.04683821
194	0xbee79e6a	-0.45238048
195	0xbe7b2143	-0.24524407
196	0xc00b7722	-2.1791463
197	0xbf5f1732	-0.8714477
198	0x3f14e649	0.5816389
199	0xbf477432	-0.77911675
200	0xbfe36e78	-1.7768087
201	0x3e792257	0.24329506
202	0x3ea056d2	0.3131624
203	0xbfa40355	-1.2813517
204	0xbf1371a3	-0.5759527
205	0x3e92935e	0.28628057
206	0x3e13084c	0.14358634
207	0xbeaba80d	-0.3352665
208	0x3f1c4b00	0.6105194
209	0xbf9d39ca	-1.2283261
210	0x3e1bd1d1	0.15216757
211	0xbf46bb2a	-0.7762934
212	0x3df5531e	0.11978744
213	0x40067b1d	2.1012642
214	0x3e134313	0.14381056
215	0x3bcd6016	0.006267558
216	0x3eb2ad49	0.3489783
217	0x3e326282	0.1742039
218	0x3d509ed5	0.050932724
219	0xbd621b8e	-0.05520206
220	0xbc118a3c	-0.008883055
221	0x3f69e714	0.9136822
222	0xc0438e62	-3.0555654
223	0xbeb07cfc	-0.34470356
224	0xbeaedaa3	-0.34151182
225	0x3f59628b	0.8491599
226	0x3e4b03fb	0.19825737
227	0xbef560ad	-0.4792532
228	0x3eef74d0	0.46768808
229	0xbd0a6591	-0.033788268
230	0xbf393bc2	-0.7235681
231	0x3eaf4496	0.34232014
232	0x3e84a5fe	0.25907892
233	0xbe80e66e	-0.25175804
234	0xbf923fec	-1.1425757
235	0x3f299973	0.6624977
236	0x3f92a936	1.1457889
237	0x3f0a162c	0.5394008
238	0xbeaefcba	-0.3417719
239	0xbddb0511	-0.10694326
240	0xbd8c6f77	-0.06857198
241	0x3f26a8e7	0.65101475
242	0xbf1cb45a	-0.61212695
243	0x3f56f51f	0.83967775
244	0xbe695ba9	-0.22788872
245	0xbf859030	-1.0434628
246	0x3df40ebb	0.11916872
247	0xbf87b4f1	-1.0602094
248	0xbe0e4783	-0.13894467
249	0x3eb191f3	0.34681663
250	0xbee48651	-0.44633725
251	0xbf5625b2	-0.8365127
252	0xbf2de3e6	-0.6792587
253	0xbc0dd5fb	-0.008656974
254	0xbf20c315	-0.6279767
255	0x3e9cc4df	0.3061895

fc1.bias f4 [4]
0	0x3e5ca1a4	0.21546036
1	0xbe601c67	-0.21885835
2	0x3f0d8ff8	0.55297804
3	0xbf0ce8a1	-0.55042464
