08/check_point_epoch_6.pth (torch, 6055 bytes, 2 tensors)

fc1.weight f4 [4, 300]
-0.4793285 -0.06250722 -0.13963602 0.81293786 0.2811305 -0.68439823 -0.7775405 0.49902117
0.6830858 -0.12822007 -0.16979332 1.208559 0.3848437 0.027321234 -0.7808499 0.19745098
-0.19551311 -0.63638043 0.8354041 -0.1485794 0.34516096 -0.5866299 0.23802333 -0.49325794
0.7561809 1.3769335 -0.14697269 0.1497935 0.23869438 0.91669554 0.45968702 -0.8566194
0.4241489 -0.7198912 -0.51079607 1.0912746 0.51625174 -0.08054565 0.21112661 -0.57627356
0.047311693 0.21441408 2.0967588 -0.6530017 -1.160607 -0.36219254 -0.42266834 -0.10643078
-0.06678739 0.11884447 1.0272338 -0.6502102 1.0987868 0.4438902 -0.24991888 -0.27433616
-1.1671677 0.7317659 1.1673172 -1.3078414 -0.6439918 -0.2633438 -0.75649846 -0.33074376
0.333091 -0.76174945 0.5761114 -0.92878926 0.7747811 0.083444625 -0.9807757 -0.71792036
1.0393511 -0.08921848 0.7234054 -0.36406857 -0.3755358 1.1162359 -0.25413477 -0.16383564
-0.61100996 1.0155302 -0.56506157 1.2104017 1.5385395 0.82904357 -0.3202225 -0.17090045
0.6582424 -0.45223215 0.35307127 -0.31252515 -0.5878217 1.350941 -1.4616174 -1.1489953
0.30129454 -0.34801194 0.2751091 -0.39835605 -0.58165777 -0.00074281456 -0.24798448 1.0892932
0.48736393 -0.26661637 0.095631205 0.29476315 -0.78132623 -0.116897225 0.07239823 -0.41619888
-0.8820241 -0.14058791 -0.20118521 -0.18764414 1.0108691 0.97881126 -0.06789553 0.2469988
0.8829003 0.89661187 0.29402488 0.6459508 -0.23972282 -0.64327633 -0.47351903 -0.8568393
-0.15757112 0.014929604 -0.3027597 0.9560285 1.2351451 -1.6243058 -0.56792676 -0.3926726
-1.0213194 -0.31493342 -0.7064983 -0.064506024 -0.26134947 -1.5419893 0.19752824 -0.41469595
-0.6995336 -1.5693258 -0.8683179 -0.18305898 0.44910914 0.20812276 -0.3858299 -0.00423302
0.5996624 -0.24381882 -0.6846012 1.7336794 -0.35936317 0.84465927 0.25651753 0.581739
-0.2853349 0.061304227 0.24222933 -0.49175078 0.65783054 0.15308756 -0.03515636 -0.10774275
1.0604573 0.70098406 -2.06379 0.14839818 0.59467816 -0.14324032 0.78761894 -0.64701945
0.0876585 -0.37356666 0.698933 -1.2253758 -0.1278004 -1.2228316 -0.77177376 0.0042629074
0.45824865 -1.1492829 1.0332417 1.8320063 0.5110541 0.07337763 -0.7603866 -0.17127275
-1.2275293 -0.06572254 -0.46792564 -0.25527325 -2.150881 -0.86821514 0.58957833 -0.7637033
-1.7605423 0.25019673 0.30767384 -1.2671757 -0.5629634 0.29002535 0.13185866 -0.29683033
0.61906534 -1.2025925 0.18935193 -0.7695959 0.10793247 2.0860105 0.15445244 0.024646215
0.34693104 0.17857525 0.05146732 -0.070519544 -0.012798393 0.9030369 -3.020638 -0.35182604
-0.35397235 0.8507717 0.18876807 -0.46918523 0.48306525 -0.04624057 -0.7061383 0.34461045
0.259481 -0.23089622 -1.1457598 0.65393245 1.1354768 0.5422919 -0.34215114 -0.10787509
-0.058628127 0.6609762 -0.6036433 0.82529277 -0.2390321 -1.0222714 0.11212197 -1.0406139
-0.11566748 0.33016863 -0.40357918 -0.81910956 -0.6725187 -0.026020618 -0.62452376 0.29275662
00000000: 8c6a f5be c903 80bd bffc 0ebe b21c 503f
00000010: 56f0 8f3e b934 2fbf e50c 47bf b47f ff3e
00000020: b6de 2e3f 1f4c 03be 4dde 2dbe 10b2 9a3f
00000030: 3c0a c53e c8d0 df3c c7e5 47bf 9730 4a3e
00000040: 9734 48be d4e9 22bf 0bdd 553f 3325 18be
00000050: f0b8 b03e 612d 16bf 63bc 733e 4e8c fcbe
00000060: 1295 413f 5b3f b03f 0280 16be 7863 193e
00000070: 4d6c 743e 8fac 6a3f 195c eb3e 694b 5bbf
00000080: 0b2a d93e ca4a 38bf 88c3 02bf e3ae 8b3f
00000090: 1329 043f 1ef5 a4bd 9331 583e aa86 13bf
000000a0: e8c9 413d 5d8f 5b3e 4c31 0640 1f2b 27bf
000000b0: c58e 94bf 4d71 b9be fc67 d8be 61f8 d9bd
000000c0: d4c7 88bd bb64 f33d 667c 833f 2d74 26bf
000000d0: 0ca5 8c3f 9445 e33e bcea 7fbe ca75 8cbe
000000e0: c065 95bf 0355 3b3f a66a 953f 5967 a7bf
000000f0: a6dc 24bf 00d5 86be e2a9 41bf 3f57 a9be
00000100: e78a aa3e 0302 43bf 097c 133f 22c5 6dbf
00000110: 0e58 463f 04e5 aa3d 1e14 7bbf a1c9 37bf
00000120: 7509 853f 2eb8 b6bd 1931 393f 3267 babe
00000130: 3a46 c0be d1e0 8e3f f41d 82be 88c4 27be
00000140: 266b 1cbf e5fc 813f e0a7 10bf 71ee 9a3f
00000150: ddee c43f 333c 543f 34f4 a3be 8700 2fbe
00000160: 9382 283f f98a e7be c2c5 b43e 4c03 a0be
00000170: 7c7b 16bf a2eb ac3f 4716 bbbf 4712 93bf
00000180: 4743 9a3e 9f2e b2be 1adb 8c3e 53f5 cbbe
00000190: 86e7 14bf 71b9 42ba a5ef 7dbe f66d 8b3f
000001a0: c487 f93e f181 88be 4bda c33d 32eb 963e
000001b0: ff04 48bf d067 efbd 8645 943d 0518 d5be
000001c0: 55cc 61bf 47f6 0fbe 7f03 4ebe c925 40be
000001d0: 2964 813f 6093 7a3f d00c 8bbd 41ed 7c3e
000001e0: c105 623f 5b88 653f 6e8a 963e 085d 253f
000001f0: e679 75be c2ad 24bf 1671 f2be d259 5bbf
00000200: 535a 21be 4c9b 743c 5203 9bbe 49be 743f
00000210: 3c19 9e3f 41e9 cfbf a663 11bf 620c c9be
00000220: 98ba 82bf f43e a1be 13dd 34bf bc1b 84bd
00000230: 99cf 85be e85f c5bf d844 4a3e 0753 d4be
00000240: a214 33bf abdf c8bf 154a 5ebf d073 3bbe
00000250: a2f1 e53e 221e 553e 7f8b c5be 25b5 8abb
00000260: 7a83 193f a4ab 79be 0642 2fbf 35e9 dd3f
00000270: 73fe b7be 973b 583f 4456 833e d9ec 143f
00000280: 6a17 92be 241a 7b3d f70a 783e c2c6 fbbe
00000290: 9567 283f fcc2 1c3e 1e00 10bd 3ba8 dcbd
000002a0: 11bd 873f b173 333f 2315 04c0 b1f5 173e
000002b0: d43c 183f 97ad 12be 65a1 493f 11a3 25bf
000002c0: 4d86 b33d 2144 bfbe 46ed 323f 1dd9 9cbf
000002d0: 1cde 02be bf85 9cbf f792 45bf dcaf 8b3b
000002e0: 919f ea3e b41b 93bf 4441 843f 2f7f ea3f
000002f0: 71d4 023f 0347 963d b2a8 42bf 2062 2fbe
00000300: ae1f 9dbf 8a99 86bd f393 efbe 2db3 82be
00000310: 09a8 09c0 5943 5ebf 9bee 163f 0f82 43bf
00000320: 7359 e1bf c919 803e 6d87 9d3e d032 a2bf
00000330: 5f1e 10bf 347e 943e f505 073e 25fa 97be
00000340: 117b 1e3f 8dee 99bf 79e5 413e 3d04 45bf
00000350: b30b dd3d 3281 0540 c828 1e3e dce6 c93c
00000360: f2a0 b13e 6edc 363e 66cf 523d 8d6c 90bd
00000370: 5ab0 51bc 6d2d 673f 2252 41c0 8b22 b4be
00000380: dd3b b5be 2dcc 593f 6b4c 413e 0c39 f0be
00000390: 5454 f73e c066 3dbd 7bc5 34bf c870 b03e
000003a0: b2da 843e 0f70 6cbe 42a8 92bf 1e68 273f
000003b0: 4e57 913f a4d3 0a3f 6f2e afbe 9ded dcbd
000003c0: 0c24 70bd bc35 293f 5e88 1abf 6346 533f
000003d0: d5c4 74be cad9 82bf 34a0 e53d d632 85bf
000003e0: 12e3 ecbd dd0b a93e eea1 cebe 2ab1 51bf
000003f0: 2f2a 2cbf 3129 d5bc cae0 1fbf 32e4 953e

fc1.bias f4 [4]
0.22173652 -0.22227988 0.5386554 -0.5389547
00000000: e60e 633e 569d 63be 52e5 093f eff8 09bf
