08/check_point_epoch_2.pth (torch, 6055 bytes, 2 tensors)

fc1.weight f4 [4, 300]
-0.47492784 -0.07383315 -0.13297595 0.793705 0.29778492 -0.69162375 -0.77579397 0.48374027
0.67157334 -0.13388649 -0.18297066 1.2065151 0.3666296 0.057392366 -0.75924903 0.19381069
-0.17851175 -0.63931024 0.8303587 -0.11406844 0.34826282 -0.6252602 0.20835386 -0.4866308
0.75523293 1.3473908 -0.16611795 0.16192512 0.24837051 0.89638346 0.46730027 -0.8528128
0.40817687 -0.70858735 -0.49662244 1.0783563 0.5262821 -0.10539418 0.17455024 -0.59098417
0.052882086 0.19407035 2.0748475 -0.64279 -1.106681 -0.37858942 -0.43056118 -0.09171707
-0.055952203 0.13332972 0.9772515 -0.6309394 1.1109344 0.45606098 -0.24908397 -0.27115434
-1.1635506 0.7576314 1.1456424 -1.2779871 -0.64768434 -0.22794975 -0.7462463 -0.32066202
0.3483113 -0.7512109 0.54995924 -0.9280939 0.78822696 0.092402406 -0.95391005 -0.70112586
1.0095689 -0.104251094 0.71009344 -0.36349452 -0.38499177 1.1030446 -0.26667136 -0.17328717
-0.5785104 1.0049686 -0.5592093 1.1909807 1.5423347 0.791978 -0.31325355 -0.19400156
0.6578864 -0.44348463 0.35380965 -0.29842898 -0.55821466 1.353217 -1.4167594 -1.1368825
0.2970017 -0.34096196 0.27043718 -0.3746537 -0.5681216 0.0049069114 -0.2443817 1.0656656
0.4884395 -0.28198215 0.100413166 0.2724505 -0.790498 -0.13537951 0.085058145 -0.41416353
-0.87763864 -0.14820667 -0.18446524 -0.18450141 1.015951 0.9835225 -0.08279929 0.26906905
0.8935238 0.89189076 0.31860808 0.6481083 -0.21546006 -0.6177513 -0.46661764 -0.839192
-0.13006318 0.039884783 -0.309655 0.9405206 1.2420626 -1.5975089 -0.5599206 -0.40931442
-1.0201997 -0.32147488 -0.7072742 -0.06320272 -0.269929 -1.5108931 0.21739374 -0.41157863
-0.66987276 -1.5132064 -0.8545413 -0.1793058 0.47990564 0.21605207 -0.36704686 0.009907569
0.57446647 -0.26479736 -0.68427306 1.7263976 -0.37153763 0.8654278 0.2460973 0.5671353
-0.27307618 0.07457267 0.27452862 -0.4612093 0.64245796 0.19411065 -0.029139098 -0.12410811
1.0699735 0.6764979 -2.0528238 0.14469415 0.5641754 -0.14468788 0.7546476 -0.61738104
0.06679566 -0.3918122 0.664993 -1.2231869 -0.13288887 -1.1967969 -0.7690272 0.017696165
0.47137108 -1.1419913 1.0007567 1.7973528 0.50375146 0.11074192 -0.73738384 -0.16842955
-1.2201341 -0.09201837 -0.49073967 -0.27093 -2.111112 -0.86450976 0.60142535 -0.7416614
-1.7383423 0.26010436 0.29845306 -1.2466605 -0.5436341 0.29623273 0.11365054 -0.24240471
0.63008493 -1.1662031 0.24057709 -0.7590996 0.09275366 2.0645816 0.16890186 0.05138845
0.3443066 0.18614167 0.053670887 -0.09245781 -0.018715996 0.88814783 -2.9744842 -0.36267018
-0.37027645 0.8528626 0.17496836 -0.4543038 0.5003833 -0.0654326 -0.68155205 0.34807336
0.26025262 -0.2006334 -1.1512219 0.64125085 1.1218152 0.5468159 -0.34325787 -0.106867425
-0.046169106 0.67694795 -0.59093255 0.80501807 -0.25487807 -0.99375874 0.10270783 -1.0108021
-0.08375655 0.30842417 -0.34404334 -0.79403317 -0.6630489 -0.04936551 -0.61955863 0.2749833
00000000: be29 f3be d635 97bd d92a 08be 4030 4b3f
00000010: 4477 983e 410e 31bf 6f9a 46bf ceac f73e
00000020: 3bec 2b3f 8a19 09be a95c 3bbe 166f 9a3f
00000030: e0b6 bb3e 4214 6b3d 255e 42bf 4f76 463e
00000040: c9cb 36be d6a9 23bf 6392 543f b79c e9bd
00000050: 814f b23e 0d11 20bf b75a 553e ac27 f9be
00000060: f256 413f 4d77 ac3f d31a 2abe b3cf 253e
00000070: d754 7e3e 6379 653f fb41 ef3e f151 5abf
00000080: 8ffc d03e fb65 35bf 4c45 febe 9407 8a3f
00000090: 6cba 063f e7d8 d7bd 4cbd 323e bd4a 17bf
000000a0: e39a 583d 61ba 463e 4dca 0440 e38d 24bf
000000b0: b9a7 8dbf 79d6 c1be 8472 dcbe 29d6 bbbd
000000c0: 232e 65bd 9687 083e 282d 7a3f 3f85 21bf
000000d0: 1933 8e3f d380 e93e de0f 7fbe bed4 8abe
000000e0: 3aef 94bf 22f4 413f 69a4 923f 1595 a3bf
000000f0: a4ce 25bf a96b 69be ff09 3fbf d02d a4be
00000100: dc55 b23e 5c4f 40bf 21ca 0c3f 9097 6dbf
00000110: 3ec9 493f 793d bd3d 7333 74bf fc7c 33bf
00000120: 8e39 813f 9981 d5bd afc8 353f f41b babe
00000130: a41d c5be 9130 8d3f 2689 88be 3172 31be
00000140: 4219 14bf d0a2 803f 5728 0fbf 0e72 983f
00000150: 396b c53f 12bf 4a3f c562 a0be 58a8 46be
00000160: 3e6b 283f 6b10 e3be 8a26 b53e afcb 98be
00000170: 28e7 0ebf 3736 ad3f 5f58 b5bf 5e85 91bf
00000180: 9b10 983e 9192 aebe be76 8a3e 9cd2 bfbe
00000190: 6b70 11bf 28ca a03b 323f 7abe bb67 883f
000001a0: be14 fa3e f75f 90be 6ba5 cd3d a27e 8b3e
000001b0: 145e 4abf eda0 0abe f732 ae3d 3e0d d4be
000001c0: edac 60bf 7dc3 17be 75e4 3cbe f0ed 3cbe
000001d0: af0a 823f 21c8 7b3f ad92 a9bd 6bc3 893e
000001e0: fabd 643f f452 643f 9920 a33e 6dea 253f
000001f0: 90a1 5cbe f324 1ebf 82e8 eebe 49d5 56bf
00000200: 482f 05be 3a5e 233d 1a8b 9ebe f5c5 703f
00000210: e8fb 9e3f 2c7b ccbf f556 0fbf a991 d1be
00000220: e795 82bf 5b98 a4be ec0f 35bf 6d70 81bd
00000230: 2234 8abe f264 c1bf 779c 5e3e 6fba d2be
00000240: c87c 2bbf bfb0 c1bf 38c3 5abf f19b 37be
00000250: 31b6 f53e c13c 5d3e 91ed bbbe 5b53 223c
00000260: 3c10 133f 8593 87be 852c 2fbf 99fa dc3f
00000270: 2e3a bebe ad8c 5d3f ee00 7c3e c72f 113f
00000280: a4d0 8bbe 8eb9 983d 048f 8c3e a023 ecbe
00000290: 2078 243f f1c4 463e 1eb5 eebc 652c febd
000002a0: e4f4 883f f72e 2d3f 7761 03c0 b42a 143e
000002b0: cd6d 103f 0f29 14be 9630 413f af0c 1ebf
000002c0: 2acc 883d 9c9b c8be fb3c 2a3f 6391 9cbf
000002d0: 0514 08be a430 99bf f7de 44bf 8cf7 903c
000002e0: 8d57 f13e c52c 92bf cc18 803f a80f e63f
000002f0: dbf5 003f a9cc e23d 30c5 3cbf cc78 2cbe
00000300: 5b2d 9cbf 2174 bcbd 3b42 fbbe 56b7 8abe
00000310: 761c 07c0 8350 5dbf 03f7 193f 86dd 3dbf
00000320: 0082 debf 662c 853e d7ce 983e 9292 9fbf
00000330: 9b2b 0bbf d1ab 973e 9dc1 e83d f138 78be
00000340: 3f4d 213f 2546 95bf d759 763e 5a54 42bf
00000350: a2f5 bd3d 1b22 0440 9cf4 2c3e b27c 523d
00000360: f448 b03e ec9b 3e3e 01d6 5b3d 855a bdbd
00000370: 4a52 99bc a85d 633f f35d 3ec0 e8af b9be
00000380: e094 bdbe 3455 5a3f e82a 333e 829a e8be
00000390: 1f19 003f 8701 86bd 327a 2ebf ac36 b23e
000003a0: d53f 853e d872 4dbe 3d5b 93bf 0429 243f
000003b0: a497 8f3f 20fc 0b3f 7fbf afbe 4fdd dabd
000003c0: d11b 3dbd 764c 2d3f 5b47 17bf aa15 4e3f
000003d0: 617f 82be f966 7ebf 7c58 d23d f761 81bf
000003e0: 8e88 abbd c6e9 9d3e 7326 b0be c245 4bbf
000003f0: 93bd 29bf 7d33 4abd 659b 1ebf 9cca 8c3e

fc1.bias f4 [4]
0.2274575 -0.2296798 0.5234233 -0.52204204
00000000: 9eea 683e 2e31 6bbe 12ff 053f 8ca4 05bf
