08/check_point_epoch_8.pth (torch, 6055 bytes, 2 tensors)

fc1.weight f4 [4, 300]
0	0xbef630eb	-0.48084196
1	0xbd69770c	-0.056998298
2	0xbe129baf	-0.14317201
3	0x3f527491	0.82209116
4	0x3e8bf286	0.27333468
5	0xbf2e21cb	-0.68020314
6	0xbf474ddd	-0.77853185
7	0x3f01c8ba	0.5069691
8	0x3f302c06	0.68817174
9	0xbe005de1	-0.12535812
10	0xbe267ad4	-0.16257793
11	0x3f9ae343	1.2100605
12	0x3ec9442a	0.39309818
13	0x3c55b3f4	0.013043392
14	0xbf4a4741	-0.79014975
15	0x3e4b3a7c	0.19846529
16	0xbe504b5f	-0.20341252
17	0xbf228b20	-0.6349354
18	0x3f566978	0.8375468
19	0xbe28a23c	-0.16468138
20	0x3eafcd97	0.3433654
21	0xbf1165a6	-0.5679573
22	0x3e817e84	0.25291836
23	0xbefe4f46	-0.49669856
24	0x3f418fec	0.7561023
25	0x3fb22647	1.3917931
26	0xbe0cfc59	-0.13768138
27	0x3e139ad0	0.14414525
28	0x3e6feadc	0.23429435
29	0x3f6d2a77	0.9264292
30	0x3ee90573	0.4551197
31	0xbf5bab5e	-0.8580836
32	0x3edd21df	0.43189904
33	0xbf39b362	-0.7253934
34	0xbf047b5d	-0.5175074
35	0x3f8c8509	1.0978099
36	0x3f0300f3	0.51173323
37	0xbd8c8c69	-0.068627186
38	0x3e6943d1	0.22779776
39	0xbf11b96e	-0.5692357
40	0x3d351eaa	0.044218697
41	0x3e654dbc	0.22392935
42	0x4006c978	2.1060467
43	0xbf287ed7	-0.6581854
44	0xbf97e624	-1.1867108
45	0xbeb549f6	-0.3540799
46	0xbed6b0e0	-0.4193182
47	0xbde8707c	-0.1134958
48	0xbd92425b	-0.071415626
49	0x3de62465	0.112374105
50	0x3f864f27	1.0492905
51	0xbf28a54f	-0.6587724
52	0x3f8c08aa	1.0940144
53	0x3ee01334	0.4376465
54	0xbe802ca6	-0.25034064
55	0xbe8ccae0	-0.2749853
56	0xbf95a030	-1.168951
57	0x3f381192	0.7190181
58	0x3f96acc8	1.1771479
59	0xbfa9396a	-1.3220646
60	0xbf245fca	-0.6420866
61	0xbe8fca04	-0.28083813
62	0xbf42f869	-0.76160294
63	0xbeabedf2	-0.33579975
64	0x3ea6d60b	0.32585177
65	0xbf4465d5	-0.76717883
66	0x3f16b7e5	0.5887435
67	0xbf6ddefd	-0.9291838
68	0x3f44cd5b	0.7687585
69	0x3da218f6	0.07914917
70	0xbf7e6ca4	-0.9938452
71	0xbf3a005c	-0.726568
72	0x3f86d2a0	1.0533028
73	0xbda7c5be	-0.08192013
74	0x3f3aed11	0.73017985
75	0xbeba6c80	-0.36410904
76	0xbebe06f0	-0.37114668
77	0x3f8f9bda	1.1219437
78	0xbe7e09c9	-0.2480842
79	0xbe233c13	-0.15940885
80	0xbf2062e4	-0.62650895
81	0x3f82a94a	1.0207913
82	0xbf11470c	-0.56749034
83	0x3f9c1d89	1.2196513
84	0x3fc4a343	1.5362324
85	0x3f589757	0.84605926
86	0xbea5744a	-0.32315284
87	0xbe2394dd	-0.15974756
88	0x3f28c352	0.65923035
89	0xbee9d50e	-0.4567036
90	0x3eb419af	0.35175845
91	0xbea3525e	-0.3189878
92	0xbf19ced9	-0.6008125
93	0x3facd0f4	1.3501267
94	0xbfbde19d	-1.4834477
95	0xbf93b2b8	-1.1538916
96	0x3e9b9d6f	0.3039355
97	0xbeb3b074	-0.3509556
98	0x3e8da12c	0.27662027
99	0xbed1d686	-0.4098398
100	0xbf1677b4	-0.587764
101	0xbb791603	-0.0038007505
102	0xbe80588d	-0.2506756
103	0x3f8cd770	1.1003246
104	0x3ef91c74	0.4865452
105	0xbe8455ce	-0.25846714
106	0x3dbfcc68	0.09365159
107	0x3e9c7469	0.30557564
108	0xbf4712aa	-0.77762854
109	0xbddc7626	-0.107647225
110	0x3d871e03	0.06597521
111	0xbed5747a	-0.41690427
112	0xbf622527	-0.8833794
113	0xbe0c84b3	-0.13722496
114	0xbe55eb64	-0.20890576
115	0xbe41b30d	-0.18915959
116	0x3f81237e	1.0088956
117	0x3f7a06f3	0.97666854
118	0xbd7aeb39	-0.061259482
119	0x3e715f7e	0.23571584
120	0x3f60cd19	0.87812954
121	0x3f660fc4	0.89867806
122	0x3e906a3f	0.2820606
123	0x3f24f85e	0.6444148
124	0xbe80b189	-0.2513545
125	0xbf27acb2	-0.6549789
126	0xbef450f8	-0.47718024
127	0xbf5d50a5	-0.8645118
128	0xbe2ecaff	-0.17069624
129	0x3b38a920	0.0028176978
130	0xbe997204	-0.299698
131	0x3f7681c2	0.96291745
132	0x3f9db818	1.2321806
133	0xbfd18bee	-1.6370828
134	0xbf12534f	-0.5715837
135	0xbec51168	-0.38489842
136	0xbf82da73	-1.0222915
137	0xbe9fbd5d	-0.3119916
138	0xbf34b64e	-0.70590675
139	0xbd8491a9	-0.06473095
140	0xbe83f16f	-0.25770137
141	0xbfc7305e	-1.5561635
142	0x3e40765b	0.18795149
143	0xbed53b8c	-0.41646993
144	0xbf36b574	-0.71370625
145	0xbfcc5d71	-1.5966016
146	0xbf5ff6f0	-0.8748617
147	0xbe3d331c	-0.18476528
148	0x3ede71d9	0.43446234
149	0x3e517fd9	0.20458926
150	0xbeca34c0	-0.3949337
151	0xbc3355cb	-0.010945748
152	0x3f1cf10a	0.61305296
153	0xbe6f572b	-0.23373096
154	0xbf2f2bad	-0.6842602
155	0x3fde5f68	1.7372866
156	0xbeb50007	-0.35351583
157	0x3f559602	0.8343202
158	0x3e862368	0.26198888
159	0x3f168291	0.5879298
160	0xbe94e0b5	-0.29077688
161	0x3d5f1ac9	0.054468904
162	0x3e67f481	0.22651865
163	0xbf01a82d	-0.5064724
164	0x3f2a50d7	0.665296
165	0x3e08a058	0.13342416
166	0xbd1d154b	-0.038350385
167	0xbdcbf7ee	-0.09959398
168	0x3f87183f	1.0554274
169	0x3f36a9a1	0.71352583
170	0xc00467a9	-2.068827
171	0x3e19c8a4	0.15017945
172	0x3f1c28d6	0.6099981
173	0xbe129608	-0.14315045
174	0x3f4d962a	0.8030726
175	0xbf28f5fa	-0.6600033
176	0x3dc6530a	0.09683807
177	0xbebaa051	-0.36450437
178	0x3f37218d	0.7153557
179	0xbf9d07b7	-1.2267979
180	0xbe0037ac	-0.12521237
181	0xbf9e2a60	-1.2356682
182	0xbf45f756	-0.7733053
183	0xbafb9c67	-0.0019196392
184	0x3ee711f4	0.45130885
185	0xbf93840b	-1.1524671
186	0x3f864f7d	1.0493008
187	0x3fec8ee6	1.8481109
188	0x3f03a00e	0.514161
189	0x3d613509	0.05498222
190	0xbf458c53	-0.7716724
191	0xbe3052bc	-0.1721906
192	0xbf9d8bb8	-1.2308264
193	0xbd5956fb	-0.053061467
194	0xbeea33e0	-0.45742702
195	0xbe7e693b	-0.2484483
196	0xc00adef3	-2.1698577
197	0xbf5ece42	-0.87033474
198	0x3f158f25	0.58421546
199	0xbf4629ab	-0.7740733
200	0xbfe2bdce	-1.7714174
201	0x3e7b7320	0.24555635
202	0x3e9f75d3	0.3114458
203	0xbfa36b8d	-1.2767197
204	0xbf125e6c	-0.57175326
205	0x3e932e93	0.2874647
206	0x3e0f301c	0.13983196
207	0xbea533b6	-0.32266015
208	0x3f1d0693	0.61338156
209	0xbf9c24e0	-1.2198753
210	0x3e286292	0.16443852
211	0xbf462f46	-0.77415884
212	0x3ded2694	0.11579624
213	0x40062919	2.0962584
214	0x3e16dee0	0.14733458
215	0x3c48ad8b	0.012248407
216	0x3eb25258	0.34828448
217	0x3e33c442	0.17555335
218	0x3d51062d	0.05103128
219	0xbd76a4ee	-0.060215883
220	0xbc2664bd	-0.010155854
221	0x3f690210	0.9101877
222	0xc042cf99	-3.0439208
223	0xbeb1a901	-0.34699252
224	0xbeb0fd51	-0.34568265
225	0x3f5985f2	0.8497001
226	0x3e47df58	0.19518793
227	0xbef3b57c	-0.475994
228	0x3ef22bb2	0.47298962
229	0xbd1ab1ea	-0.03776733
230	0xbf37c4e5	-0.7178481
231	0x3eafa5d7	0.34306213
232	0x3e84b6ad	0.2592062
233	0xbe7ad88e	-0.24496672
234	0xbf926037	-1.1435612
235	0x3f28e30a	0.65971434
236	0x3f923861	1.1423455
237	0x3f0a5346	0.54033315
238	0xbeaf0988	-0.3418696
239	0xbddbf07f	-0.1073923
240	0xbd859204	-0.06521991
241	0x3f277732	0.6541625
242	0xbf1bffcf	-0.6093721
243	0x3f55bf85	0.8349536
244	0xbe6d145e	-0.231523
245	0xbf84a94d	-1.0364166
246	0x3def3a20	0.11681008
247	0xbf86e662	-1.0539057
248	0xbe0668a0	-0.13125849
249	0x3eaeb8b8	0.34125304
250	0xbedd51b4	-0.43226397
251	0xbf54b10a	-0.8308264
252	0xbf2d52bd	-0.67704374
253	0xbc6c55ea	-0.01442478
254	0xbf20793a	-0.6268498
255	0x3e9a79a3	0.30170926

fc1.bias f4 [4]
0	0x3e5ed653	0.21761446
1	0xbe612849	-0.21988024
2	0x3f0c586a	0.5482241
3	0xbf0bfb3c	-0.5468023
