08/check_point_epoch_5.pth (torch, 6055 bytes, 2 tensors)

fc1.weight f4 [4, 300]
00000000: b3f2 f4be 27ba 85bd 1638 0dbe 50e9 4e3f
00000010: edfe 913e 4db6 2fbf f6ed 46bf 317d fd3e
00000020: 7f2e 2e3f b6c1 04be b56c 31be a19c 9a3f
00000030: 2cd3 c23e 2ae4 0d3d b69e 46bf 277d 493e
00000040: ea04 44be 1619 23bf 7891 553f ed9f 0fbe
00000050: a926 b13e 359c 18bf d719 6c3e dcaf fbbe
00000060: 4090 413f 2e4c af3f 0856 1bbe 8466 1c3e
00000070: 7cc8 763e 2067 693f 8c71 ec3e 8614 5bbf
00000080: d424 d73e b093 37bf a9e1 01bf 0844 8b3f
00000090: 0ac5 043f 1e66 b1bd bf44 4f3e 5172 14bf
000000a0: e9de 473d 2e85 563e 2fdf 0540 1e82 26bf
000000b0: 52dc 92bf e087 bbbe 3255 d9be b993 d2bd
000000c0: b5a6 83bd c664 fa3d 42fd 813f 194b 25bf
000000d0: e0fc 8c3f 4ada e43e c2b6 7fbe 532f 8cbe
000000e0: 7a48 95bf 35f9 3c3f bfc1 943f 1979 a6bf
000000f0: f719 25bf 2b54 82be f402 41bf 990c a8be
00000100: 0e71 ac3e 5252 42bf 20d7 113f bab9 6dbf
00000110: 5528 473f 0d67 af3d 8161 79bf 40b1 36bf
00000120: ae1d 843f 414e bebd 0b54 383f 8f5a babe
00000130: 666f c1be 147d 8e3f 54b1 83be c31c 2abe
00000140: 4463 1abf 79a6 813f 1350 10bf 2353 9a3f
00000150: d011 c53f 8cf7 513f 4d25 a3be bbcd 34be
00000160: ca6d 283f 8068 e6be dc00 b53e 324a 9ebe
00000170: 55b6 14bf 32fb ac3f 23ac b9bf a6b9 92bf
00000180: 00a4 993e bc5c b1be 965f 8c3e f2f8 c8be
00000190: 7a15 14bf f506 403a 07c1 7cbe 70b3 8a3f
000001a0: 7cb5 f93e 4c8c 8abe 4b17 c63d c91b 943e
000001b0: 708b 48bf 58e5 f8bd 8bd2 9a3d 94df d4be
000001c0: 4493 61bf ecca 11be e0e7 49be 5b59 3fbe
000001d0: f288 813f a3dc 7a3f 4e33 92bd a154 813e
000001e0: c6a9 623f 0e40 653f 8ea5 993e 5e89 253f
000001f0: 8664 6fbe 881e 23bf 4c87 f1be 6a4d 5abf
00000200: b677 1abe 72b6 ac3c 53d8 9bbe 46cf 733f
00000210: 5e4d 9e3f 2213 cfbf b6e6 10bf 2f1a cbbe
00000220: 99ad 82bf e008 a2be a3ed 34bf 55ac 83bd
00000230: dfd1 86be 506d c4bf 6144 4f3e fce2 d3be
00000240: eb39 31bf 281a c7bf 1e6f 5dbf 758c 3abe
00000250: 45c7 e93e 6b07 573e 8c2c c3be dca6 4bba
00000260: c0d7 173f f6ec 7ebe fa45 2fbf b6ad dd3f
00000270: fe84 b9be 3c8f 593f 2ff6 813e 0412 143f
00000280: 539e 90be 497f 843d 3119 803e a8f0 f7be
00000290: 896f 273f 9407 273e 7998 09bd fc05 e5bd
000002a0: 730d 883f cedb 313f 49ea 03c0 cd06 173e
000002b0: 2347 163f 67e0 12be 4897 473f 21de 23bf
000002c0: 5c89 a93d 3997 c1be 35ca 303f e1c3 9cbf
000002d0: 0831 04be e9b1 9bbf 2463 45bf 2017 f53b
000002e0: 535c ec3e 2de4 92bf 5f38 833f 0b6e e93f
000002f0: 3467 023f 6243 a93d e932 41bf e4cb 2ebe
00000300: 87e6 9cbf 77cc 93bd be60 f2be 7a90 84be
00000310: 0d09 09c0 f301 5ebf 64a6 173f 8424 42bf
00000320: a4a5 e0bf e852 813e 0d77 9c3e 2591 a1bf
00000330: adf0 0ebf 6235 953e 68ac 023e 0b32 91be
00000340: 1133 1f3f 95cc 98bf ddd5 4e3e 1264 44bf
00000350: 7420 d53d 612b 0540 d7d4 213e b796 fe3c
00000360: 454a b13e 0197 383e a948 543d be4a 9bbd
00000370: 1866 68bc 383e 663f f493 40c0 7571 b5be
00000380: fb56 b7be ceee 593f dbe0 3d3e a066 eebe
00000390: 00c0 f93e 4dde 4fbd 833c 33bf 55db b03e
000003a0: 26ef 843e 7ef8 64be 5ed0 92bf 84a2 263f
000003b0: 2ae7 903f c517 0b3f 0a48 afbe c3f3 dcbd
000003c0: 04f0 62bd 3927 2a3f e6c3 19bf 1a02 523f
000003d0: 76ba 78be 24f1 81bf 93d5 e03d a94c 84bf
000003e0: 6ab6 dcbd 203a a63e 9026 c7be a024 50bf
000003f0: 9592 2bbf ba6a 02bd e491 1fbf e49a 933e
-0.47841415 -0.06529646 -0.13790926 0.80824757 0.28514805 -0.68637544 -0.7770685 0.49509576
0.680397 -0.1296452 -0.17326625 1.2079049 0.38051736 0.034641422 -0.77585924 0.19676648
-0.191425 -0.63710153 0.8342509 -0.1402585 0.34599808 -0.59613353 0.23056732 -0.49157608
0.75610733 1.3695123 -0.15169537 0.15273482 0.24099916 0.9117298 0.4618038 -0.8557819
0.42020285 -0.7170973 -0.50734955 1.0880136 0.5186316 -0.086620554 0.20241068 -0.57986933
0.048796568 0.20949242 2.091747 -0.65042293 -1.1473486 -0.36627102 -0.4244781 -0.10282082
-0.06428281 0.12226252 1.0155413 -0.64567715 1.1014671 0.4469779 -0.2497206 -0.27379856
-1.1662743 0.7381776 1.1621627 -1.3005706 -0.64492744 -0.2545484 -0.7539513 -0.3282211
0.33680004 -0.7590686 0.5696888 -0.9286152 0.77795917 0.08564577 -0.97414404 -0.7136421
1.0321558 -0.092922695 0.7200324 -0.36397216 -0.37780303 1.1131921 -0.25721228 -0.16612534
-0.6030772 1.0128928 -0.56372184 1.2056621 1.5396061 0.8201835 -0.31864396 -0.17656605
0.65792525 -0.45001602 0.35352218 -0.30915982 -0.58090717 1.3514159 -1.4505657 -1.1462905
0.30007935 -0.34641063 0.27416676 -0.3925243 -0.5784527 0.00073252554 -0.24683009 1.083601
0.48771274 -0.27060163 0.096724115 0.28927448 -0.78337765 -0.12153119 0.07559689 -0.41576827
-0.88115335 -0.14237565 -0.1971736 -0.1868643 1.0119917 0.97992915 -0.07138692 0.2525988
0.88540304 0.89550865 0.3000912 0.6466273 -0.2337819 -0.6371846 -0.47173536 -0.85274374
-0.15084729 0.02108309 -0.3043848 0.9523815 1.236736 -1.6177714 -0.56602037 -0.39668414
-1.0209228 -0.31647396 -0.70675105 -0.06429354 -0.26331994 -1.534586 0.20240928 -0.41384113
-0.69229 -1.5554857 -0.86497676 -0.18217643 0.45659843 0.20998923 -0.38119924 -0.00077686994
0.59313583 -0.24895081 -0.6846615 1.7318637 -0.36234277 0.84984183 0.25383136 0.5783999
-0.28245792 0.0646959 0.2501922 -0.48425794 0.65404564 0.16311485 -0.033592675 -0.11182782
1.0629104 0.6947602 -2.0611746 0.14748688 0.58702296 -0.14343415 0.7796521 -0.64010817
0.08278152 -0.37810686 0.69058543 -1.2247277 -0.12909329 -1.2163669 -0.771044 0.0074795634
0.46164188 -1.1475884 1.0251578 1.8236707 0.50938725 0.082648054 -0.7546831 -0.17069966
-1.2257851 -0.07216733 -0.47339433 -0.25891477 -2.1411774 -0.86721724 0.59238267 -0.7583697
-1.755055 0.25258565 0.3055958 -1.262242 -0.5583599 0.2914229 0.1276108 -0.28358492
0.62187296 -1.1937433 0.2019877 -0.76715195 0.104065806 2.0807726 0.15803848 0.031077726
0.34626976 0.18026353 0.051827107 -0.07582615 -0.014184497 0.8993869 -3.0090303 -0.35438123
-0.35808548 0.8513001 0.18542807 -0.46562672 0.48779297 -0.050749112 -0.7001421 0.34542337
0.25963706 -0.22360417 -1.1469839 0.6509173 1.1320546 0.54333144 -0.3423465 -0.10788681
-0.055404678 0.664661 -0.6006454 0.82034457 -0.24289879 -1.0151715 0.10978236 -1.0335895
-0.1077698 0.3246622 -0.38896608 -0.81305885 -0.6702054 -0.031840064 -0.62331986 0.2882911

fc1.bias f4 [4]
00000000: 5e02 653e 1a07 65be 39ae 083f 51e4 08bf
0.22364184 -0.2236599 0.5339084 -0.53473383
