08/check_point_epoch_0.pth (torch, 6055 bytes, 2 tensors)

fc1.weight f4 [4, 300]
000000 ff b0 f1 be 1b 93 a3 bd 13 01 05 be 0b 94 48 3f
       -0.4720535 -0.079870425 -0.12988691 0.78350896
000010 4b 08 9d 3e 11 be 31 bf 89 66 46 bf ce 33 f4 3e
       0.3067039 -0.69430643 -0.77500206 0.47695774
000020 66 28 2a 3f ba 2b 0c be fd 38 41 be 0d 6b 9a 3f
       0.66467893 -0.13688555 -0.18869396 1.2063919
000030 7e 94 b6 3e a8 8d 95 3d 7d 15 3f bf ec 6a 43 3e
       0.35660166 0.073024094 -0.74642164 0.19083756
000040 ba 9a 2d be f3 1c 24 bf 61 cb 53 3f f9 6f c3 bd
       -0.16953555 -0.64106673 0.82732207 -0.095428415
000050 01 f3 b2 3e 2f 33 25 bf 9a 2b 46 3e e7 75 f7 be
       0.34951022 -0.64531225 0.1935257 -0.4833214
000060 3d fb 40 3f 8d 9c aa 3f 77 e0 33 be ef 0d 2c 3e
       0.7538336 1.3329026 -0.17566095 0.1680219
000070 55 c4 81 3e a0 bd 62 3f 2d ba f0 3e a9 ae 59 bf
       0.25345102 0.88570595 0.4701704 -0.85032135
000080 6c f3 cc 3e 58 e1 33 bf a4 7d fa be 8e 38 89 3f
       0.40029466 -0.7026572 -0.4892398 1.0720384
000090 b0 16 08 3f 35 a4 f2 bd 35 44 1e 3e 23 4d 19 bf
       0.5315962 -0.11847726 0.15455706 -0.59883326
0000a0 8c bd 61 3d 14 0f 3c 3e 87 f2 03 40 f3 45 23 bf
       0.055112407 0.18365127 2.0616777 -0.6377861
0000b0 c9 15 8a bf d4 06 c6 be 63 b8 de be 7a 07 ac bd
       -1.0787898 -0.38677084 -0.4350005 -0.083998635
0000c0 f2 c5 4c bd 2a 70 10 3e 1d fa 72 3f e1 d1 1e bf
       -0.049993463 0.14105287 0.9491289 -0.62039
0000d0 00 2a 8f 3f 05 89 ec 3e e3 a4 7e be 9d 7c 89 be
       1.1184692 0.46198288 -0.24867587 -0.26852885
0000e0 5b aa 94 bf 05 67 45 3f bf 1f 91 3f 13 88 a1 bf
       -1.1614488 0.7711032 1.1337813 -1.2619652
0000f0 a8 44 26 bf 08 5b 57 be 66 9e 3d bf 2e 7c a1 be
       -0.6494851 -0.2103082 -0.7406982 -0.31540054
000100 73 7b b6 3e 0c f8 3e bf d1 51 09 3f 86 89 6d bf
       0.3564106 -0.7459724 0.53640467 -0.9278797
000110 da b2 4b 3f 3e 44 c6 3d 8b c1 70 bf 22 6f 31 bf
       0.7956978 0.09680985 -0.94045323 -0.693102
000120 97 53 7e 3f 95 ef e5 bd 96 3c 34 3f eb e6 b9 be
       0.993463 -0.11227337 0.70404947 -0.3630899
000130 59 e7 c7 be f8 2a 8c 3f 11 00 8c be 9e f3 36 be
       -0.39043692 1.0950613 -0.273438 -0.1786637
000140 ed b8 0f bf c9 00 80 3f 90 4e 0e bf c9 2d 97 3f
       -0.5614155 1.000024 -0.55588627 1.1810848
000150 7c 9c c5 3f 27 ac 45 3f 6c fb 9d be b0 6b 53 be
       1.543838 0.7721581 -0.30855882 -0.20646548
000160 90 91 28 3f fd db e0 be af bf b4 3e 4e ce 94 be
       0.6584711 -0.43917838 0.35302493 -0.29063648
000170 a8 8d 0a bf 44 71 ad 3f 4c 5a b2 bf 4f 91 90 bf
       -0.541224 1.3550191 -1.3933806 -1.1294345
000180 eb 22 97 3e 0e 75 ac be 9a d1 88 3e 76 7f b9 be
       0.29518828 -0.33683056 0.26722413 -0.36230057
000190 5e 78 0f bf a1 7c f9 3b 9d bf 79 be 08 ca 86 3f
       -0.5604304 0.007613734 -0.24389501 1.0530405
0001a0 be 2e fa 3e 7c d7 93 be 2c 3c d3 3d 91 c5 85 3e
       0.48863786 -0.2887534 0.10314211 0.26127294
0001b0 5e c2 4b bf 35 db 13 be ec c2 ba 3d 7e 6f d3 be
       -0.79593456 -0.1443909 0.0911921 -0.41296
0001c0 36 ec 5f bf 89 16 1c be fc d1 33 be f0 56 3b be
       -0.87469804 -0.15242971 -0.17560571 -0.18294883
0001d0 11 72 82 3f c7 73 7c 3f 88 b4 bb bd f3 25 8f 3e
       1.019106 0.9861416 -0.09165293 0.2795864
0001e0 0f 5d 66 3f f3 a0 63 3f 5f a1 a9 3e 79 08 26 3f
       0.89985746 0.88917464 0.3313093 0.6485668
0001f0 d2 af 4f be 88 84 1a bf 33 29 ed be db 3c 54 bf
       -0.20281914 -0.60358477 -0.46320495 -0.8290536
000200 16 15 ed bd a4 8b 57 3d 40 6a a0 be 3a a7 6e 3f
       -0.115762874 0.052623406 -0.31331062 0.9322392
000210 88 8a 9f 3f 73 ad ca bf 77 30 0e bf 12 12 d6 be
       1.2464151 -1.5834183 -0.555427 -0.41810662
000220 04 93 82 bf d0 7f a6 be 31 16 35 bf 57 43 7f bd
       -1.0201116 -0.32519388 -0.70736986 -0.06232008
000230 4b eb 8c be b8 31 bf bf 6c 08 69 3e 9a 15 d2 be
       -0.27523264 -1.4937048 0.22757119 -0.41032106
000240 eb 85 27 bf 77 06 be bf 0d e1 58 bf 83 31 35 be
       -0.6543872 -1.4845723 -0.847184 -0.17694668
000250 68 25 fe 3e 2c ce 61 3e 90 22 b7 be 43 ac 8c 3c
       0.49637914 0.22051305 -0.35768557 0.017171985
000260 c7 0f 10 3f ba 49 8d be 2e f9 2e bf d1 88 dc 3f
       0.56274074 -0.2759531 -0.6834897 1.7229253
000270 97 6d c1 be 1c 48 60 3f 59 14 77 3e 9b 05 0f 3f
       -0.37778923 0.8761003 0.24128856 0.5586793
000280 8b 32 88 be 09 2b a5 3d 0f d0 94 3e 69 22 e4 be
       -0.2660106 0.08064849 0.29064986 -0.44557503
000290 79 6d 22 3f cc 05 5d 3e 42 7c da bc f4 49 07 be
       0.6344829 0.21584243 -0.026670579 -0.13211805
0002a0 cd 85 89 3f f6 22 2a 3f 6f fa 02 c0 ff 53 12 3e
       1.0743958 0.66459596 -2.0465353 0.14289854
0002b0 64 8c 0c 3f 5b 24 15 be d5 b0 3c 3f 08 bb 19 bf
       0.5490172 -0.1456465 0.73707324 -0.6005101
0002c0 e1 ce 5f 3d e1 45 cd be ed c6 25 3f df 7a 9c bf
       0.054640654 -0.40092376 0.6475666 -1.2224997
0002d0 ad 3b 0a be 27 7a 97 bf 30 99 44 bf 7a fd cc 3c
       -0.13499327 -1.1834153 -0.76796246 0.02502321
0002e0 ac 7d f4 3e 3d a0 91 bf 8b 01 7c 3f be ab e3 3f
       0.4775213 -1.1377026 0.98439854 1.7786787
0002f0 7f 7e ff 3e d4 bd 04 3e b7 cf 39 bf 89 77 2a be
       0.49901196 0.12963039 -0.7258257 -0.16647162
000300 45 ac 9b bf 2c d6 d8 bd ac bc 00 bf 57 64 8f be
       -1.2161947 -0.10587725 -0.5028789 -0.2800624
000310 e2 c3 05 c0 16 e0 5c bf d0 af 1b 3f 5b c5 3a bf
       -2.0900807 -0.8627943 0.60815144 -0.7295739
000320 35 10 dd bf 7c e9 87 3e ed 07 96 3e 4a 2a 9e bf
       -1.7270571 0.26545322 0.29302922 -1.2356656
000330 17 7e 08 bf 6a a6 99 3e e0 de d3 3d 02 29 5b be
       -0.533174 0.30009776 0.103452444 -0.21402362
000340 e0 aa 22 3f f7 cb 92 bf e0 ac 88 3e 46 d5 40 bf
       0.63541985 -1.1468495 0.26694393 -0.7532543
000350 fe ce ae 3d 6b 67 03 40 69 d5 34 3e fe ce 86 3d
       0.085355744 2.0531871 0.17659535 0.065824494
000360 d9 83 af 3e 78 63 43 3e 21 aa 64 3d 8f f0 d4 bd
       0.3428028 0.19080913 0.05582631 -0.103974454
000370 fe c1 b5 bc aa 57 61 3f 78 e9 3c c0 d7 c4 bc be
       -0.02218723 0.8802439 -2.9517498 -0.36868927
000380 d8 cc c1 be d7 a2 5a 3f 67 9c 2b 3e f1 7f e4 be
       -0.37851596 0.85404724 0.16758882 -0.44628862
000390 27 db 01 3f f3 ee 9b bd 25 31 2b bf 76 47 b3 3e
       0.50725025 -0.07613935 -0.66871864 0.35015458
0003a0 a5 97 85 3e 8b f3 3c be f2 cc 93 bf b8 5d 22 3f
       0.26092258 -0.1845228 -1.1546919 0.63424253
0003b0 af b1 8e 3f ea b4 0c 3f 95 4b b0 be 1a f0 d7 bd
       1.1147975 0.5496355 -0.34432665 -0.105438426
0003c0 81 69 26 bd bc b3 2f 3f 98 77 15 bf 3b 7a 4b 3f
       -0.04062796 0.6863363 -0.5838561 0.79483384
0003d0 e3 af 86 be ba c0 7a bf 86 83 c8 3d b8 8e 7e bf
       -0.26306066 -0.9795033 0.09790711 -0.9943652
0003e0 37 a2 8a bd 83 a0 98 3e 81 5c a0 be 21 df 47 bf
       -0.06769221 0.2980996 -0.31320575 -0.7807484
0003f0 e1 82 28 bf d3 97 7b bd 54 00 1e bf 67 43 88 3e
       -0.65824705 -0.061424088 -0.6171925 0.26613924

fc1.bias f4 [4]
000000 4a db 63 3e 56 99 82 be 77 82 0d 3f de 63 05 bf
       0.22251621 -0.2550761 0.552772 -0.5210551
