08/check_point_epoch_4.pth (torch, 6055 bytes, 2 tensors)

fc1.weight f4 [4, 300]
0	0xbef46b4d	-0.47738114
1	0xbd8b7d4b	-0.06811007
2	0xbe0b7d29	-0.13621964
3	0x3f4db0f8	0.8034816
4	0x3e94196c	0.28925645
5	0xbf303150	-0.68825245
6	0xbf46d076	-0.77661836
7	0x3efb81b3	0.4912239
8	0x3f2d76f8	0.67759657
9	0xbe06353b	-0.13106243
10	0xbe34df16	-0.17663226
11	0x3f9a89e7	1.2073334
12	0x3ec08911	0.37604573
13	0x3d2c6786	0.042090915
14	0xbf454702	-0.77061474
15	0x3e48a57a	0.19594374
16	0xbe3fb9ae	-0.18723175
17	0xbf234879	-0.6378246
18	0x3f5541a5	0.8330329
19	0xbe06e78d	-0.13174267
20	0x3eb18f08	0.34679437
21	0xbf1b11d4	-0.6057408
22	0x3e647be3	0.22312884
23	0xbefad619	-0.4899147
24	0x3f418526	0.75593793
25	0x3fae599a	1.3621094
26	0xbe2038f0	-0.1564672
27	0x3e1f7c18	0.15574682
28	0x3e7938ae	0.24338028
29	0x3f681cf3	0.90669173
30	0x3eed75b5	0.46378866
31	0xbf5ad8e0	-0.85487175
32	0x3ed51a3c	0.41621578
33	0xbf36db41	-0.71428305
34	0xbf00fb85	-0.5038379
35	0x3f8ad9b1	1.0847684
36	0x3f0566ac	0.5210979
37	0xbdbe03f2	-0.09278096
38	0x3e460fb0	0.19341922
39	0xbf15612f	-0.58351415
40	0x3d4dbc88	0.050228626
41	0x3e515ce5	0.20445593
42	0x40058852	2.0864453
43	0xbf25da13	-0.6478588
44	0xbf91251b	-1.1339449
45	0xbebda0a9	-0.37036636
46	0xbeda502b	-0.42639288
47	0xbdcb1639	-0.09916348
48	0xbd7c7ca2	-0.061642297
49	0x3e00d5b2	0.12581518
50	0x3f806d76	1.0033405
51	0xbf2415df	-0.6409587
52	0x3f8d5c0f	1.1043719
53	0x3ee66b70	0.45003843
54	0xbe7f8223	-0.24951987
55	0xbe8bd38f	-0.27309844
56	0xbf952b1f	-1.1653785
57	0x3f3e9f5d	0.7446192
58	0x3f94134c	1.1568389
59	0xbfa58706	-1.2931831
60	0xbf2556a9	-0.6458536
61	0xbe7b9ccb	-0.2457153
62	0xbf405bec	-0.7514026
63	0xbea6c28c	-0.32570302
64	0x3eae5f11	0.34056905
65	0xbf41a493	-0.75641745
66	0x3f102d4b	0.5631911
67	0xbf6dae78	-0.92844343
68	0x3f480060	0.7812557
69	0x3db3f9b8	0.087878644
70	0xbf77aac9	-0.9674497
71	0xbf359bda	-0.70940936
72	0x3f832cb8	1.0248022
73	0xbdc5f5ad	-0.096659996
74	0x3f377827	0.7166771
75	0xbeba4906	-0.36383837
76	0xbec29ffa	-0.38012677
77	0x3f8e1467	1.1099976
78	0xbe85495a	-0.26032525
79	0xbe2c80e1	-0.16846038
80	0xbf18533c	-0.59502006
81	0x3f814fc4	1.0102468
82	0xbf0ff2b3	-0.56229705
83	0x3f99b547	1.2008446
84	0x3fc53257	1.5405988
85	0x3f4fa194	0.81105924
86	0xbea24a35	-0.3169724
87	0xbe3aab89	-0.18229498
88	0x3f286256	0.6577505
89	0xbee54840	-0.44781685
90	0x3eb52692	0.3538099
91	0xbe9c8412	-0.30569512
92	0xbf12dcec	-0.5736835
93	0x3fad0ca2	1.351948
94	0xbfb83eba	-1.4394143
95	0xbf925a7f	-1.1433867
96	0x3e99107b	0.29895386
97	0xbeb07da8	-0.34470868
98	0x3e8bd18a	0.27308303
99	0xbec5f491	-0.38663152
100	0xbf133c19	-0.57513577
101	0x3b0de724	0.0021652663
102	0xbe7bba78	-0.24582851
103	0x3f89f46f	1.077772
104	0x3ef9dce4	0.4880134
105	0xbe8c8bf9	-0.2745054
106	0x3dc8781e	0.097885355
107	0x3e914464	0.2837249
108	0xbf491be8	-0.78558207
109	0xbe0130db	-0.12616293
110	0x3da15677	0.0787782
111	0xbed4a008	-0.41528344
112	0xbf6150ce	-0.88013923
113	0xbe13b3e6	-0.14424095
114	0xbe45af21	-0.19305088
115	0xbe3e8a97	-0.18607555
116	0x3f81b0e4	1.0132108
117	0x3f7b284e	0.98108375
118	0xbd99a208	-0.07501608
119	0x3e842cd2	0.25815445
120	0x3f6353b6	0.8879961
121	0x3f64f490	0.8943567
122	0x3e9cc76e	0.30620903
123	0x3f25b065	0.6472228
124	0xbe693928	-0.2277571
125	0xbf21837e	-0.63091266
126	0xbef0a26b	-0.46998915
127	0xbf59341e	-0.8484515
128	0xbe1379c2	-0.14401916
129	0x3cdf9f2c	0.027297579
130	0xbe9cb612	-0.3060766
131	0x3f72d657	0.94858307
132	0x3f9e8443	1.2384113
133	0xbfce3998	-1.6111326
134	0xbf1065f2	-0.56405556
135	0xbecd347c	-0.40079105
136	0xbf82a2e7	-1.0205964
137	0xbea2da63	-0.3180724
138	0xbf34fbe4	-0.70696855
139	0xbd83153c	-0.064005345
140	0xbe87e217	-0.2653968
141	0xbfc37327	-1.5269517
142	0x3e545386	0.20734987
143	0xbed3783a	-0.41302663
144	0xbf2f57e7	-0.68493503
145	0xbfc5505c	-1.5415149
146	0xbf5c9022	-0.8615743
147	0xbe399d86	-0.18126497
148	0x3eedadb4	0.46421587
149	0x3e5903c4	0.21192843
150	0xbec0c717	-0.37651893
151	0x3b335b35	0.0027367596
152	0x3f163527	0.58674854
153	0xbe822015	-0.25415102
154	0xbf2f443c	-0.6846349
155	0x3fdd7210	1.7300434
156	0xbebb1112	-0.3653646
157	0x3f5ae322	0.8550283
158	0x3e809c15	0.2511908
159	0x3f132a67	0.57486576
160	0xbe8f15f2	-0.2794643
161	0x3d8b5e58	0.06805104
162	0x3e84373e	0.25823396
163	0xbef40e4d	-0.4766716
164	0x3f267525	0.650225
165	0x3e3171b1	0.17328526
166	0xbd035093	-0.032059263
167	0xbded6775	-0.115919985
168	0x3f885c6b	1.0653204
169	0x3f3047ae	0.68859375
170	0xc003be3b	-2.0584857
171	0x3e161495	0.14656289
172	0x3f14528b	0.5793845
173	0xbe1330e4	-0.14374119
174	0x3f4581a9	0.7715097
175	0xbf2204a8	-0.63288355
176	0x3d9f1dc7	0.077693515
177	0xbec3ec11	-0.38266042
178	0x3f2ea121	0.68214613
179	0xbf9cb0a1	-1.2241403
180	0xbe0582e2	-0.13038209
181	0xbf9add33	-1.2098755
182	0xbf453503	-0.77034014
183	0x3c30b8fa	0.010786289
184	0x3eee1046	0.4649679
185	0xbf92aa0d	-1.1458145
186	0x3f822e9c	1.0170474
187	0x3fe8562c	1.8151298
188	0x3f01f3f9	0.507629
189	0x3dbc593b	0.09196707
190	0xbf3fbacb	-0.748944
191	0xbe2e1edb	-0.17003958
192	0xbf9cab30	-1.2239742
193	0xbda12a43	-0.07869389
194	0xbef5420a	-0.47901946
195	0xbe868412	-0.26272637
196	0xc0086799	-2.131323
197	0xbf5dc3b8	-0.8662677
198	0x3f186477	0.595283
199	0xbf40bff9	-0.7529293
200	0xbfdff070	-1.7495251
201	0x3e829326	0.2550289
202	0x3e9b53bb	0.3033732
203	0xbfa0eb74	-1.2571855
204	0xbf0db93d	-0.55360776
205	0x3e95f8fc	0.29291523
206	0x3dfc3f75	0.12316791
207	0xbe8a4b10	-0.27010393
208	0x3f1fe8fe	0.6246489
209	0xbf97a589	-1.1847392
210	0x3e5be43a	0.2147378
211	0xbf43bc2f	-0.7645902
212	0x3dcd4e04	0.10024646
213	0x4004d460	2.0754623
214	0x3e258462	0.16163781
215	0x3d1a50e6	0.037674807
216	0x3eb0f4bb	0.34561715
217	0x3e3a73ae	0.18208191
218	0x3d5638c4	0.05230023
219	0xbda66580	-0.08124828
220	0xbc8003f0	-0.015626878
221	0x3f654be2	0.89568913
222	0xc03fd663	-2.9974601
223	0xbeb6cd63	-0.35703573
224	0xbeb96ecc	-0.36217344
225	0x3f5a1107	0.8518223
226	0x3e3a6101	0.18201067
227	0xbeec8620	-0.4619608
228	0x3efc0bb7	0.49227688
229	0xbd631de4	-0.055448428
230	0xbf31ad10	-0.694047
231	0x3eb14a15	0.34626833
232	0x3e850640	0.2598133
233	0xbe5d51d2	-0.21613243
234	0xbf92fb56	-1.1482952
235	0x3f25d677	0.6478037
236	0x3f907742	1.1286395
237	0x3f0b5f58	0.5444236
238	0xbeaf679c	-0.34258735
239	0xbddca106	-0.107729
240	0xbd55fcf2	-0.05224318
241	0x3f2b25b4	0.66854405
242	0xbf18f84b	-0.59753865
243	0x3f50b852	0.8153125
244	0xbe7cc1e6	-0.24683341
245	0xbf8107d0	-1.0080509
246	0x3ddc07f2	0.10743703
247	0xbf835d6e	-1.0262887
248	0xbdcc6a00	-0.099811554
249	0x3ea36d11	0.3191915
250	0xbebf9383	-0.3741723
251	0xbf4e8ebd	-0.8068655
252	0xbf2af893	-0.66785544
253	0xbd1a4a20	-0.037668347
254	0xbf1f411d	-0.6220873
255	0x3e91533b	0.28383812

fc1.bias f4 [4]
0	0x3e66c6d5	0.22536786
1	0xbe6697d6	-0.22518858
2	0x3f07832c	0.5293453
3	0xbf07c621	-0.53036696
