08/check_point_epoch_3.pth (torch, 6055 bytes, 2 tensors)

fc1.weight f4 [4, 300]
000000 20 d3 f3 be 22 4f 91 bd bd cd 09 be 72 73 4c 3f
       -0.47622013 -0.070951715 -0.13457389 0.79863656
000010 13 41 96 3e 7b a4 30 bf 9e b4 46 bf 1e 90 f9 3e
       0.29346523 -0.6900098 -0.7761935 0.48742765
000020 f9 b6 2c 3f d0 a6 07 be 14 31 38 be 7c 7a 9a 3f
       0.67466694 -0.13247228 -0.17987472 1.2068629
000030 96 2a be 3e f5 77 4b 3d 0f dd 43 bf 17 a5 47 3e
       0.37141865 0.049674947 -0.76509184 0.1949657
000040 d6 50 3b be 65 78 23 bf ca ec 54 3f 15 f1 fb bd
       -0.18292555 -0.6385558 0.8317381 -0.12301842
000050 16 f2 b1 3e 03 8e 1d bf 9f e6 5c 3e 3e fe f9 be
       0.3475501 -0.6154482 0.2157235 -0.48826784
000060 93 72 41 3f d2 67 ad 3f 21 27 25 be 40 a1 22 3e
       0.7556545 1.3547308 -0.16128208 0.15881824
000070 7a bd 7b 3e e3 cd 66 3f 73 66 ee 3e 41 98 5a bf
       0.24583998 0.9015791 0.46562538 -0.8538857
000080 b3 0b d3 3e 8e 21 36 bf 1a 11 00 bf 20 70 8a 3f
       0.41219863 -0.7114495 -0.50026095 1.0815468
000090 f9 0d 06 3f f9 d2 ca bd 2b 8e 3c 3e bf 53 16 bf
       0.5236507 -0.09903521 0.18413608 -0.58721536
0000a0 78 56 53 3d 4e 17 4c 3e 3c 2c 05 40 37 33 25 bf
       0.051596135 0.19930765 2.0808249 -0.6453127
0000b0 06 69 8f bf 4c bb bf be 1f 5a db be 75 81 c3 bd
       -1.1203926 -0.37447584 -0.42842194 -0.09546176
0000c0 e9 19 71 bd b7 9d 04 3e 19 97 7d 3f c9 d3 22 bf
       -0.0588626 0.12950788 0.9905868 -0.6360441
0000d0 51 c3 8d 3f 5c f8 e7 3e b7 4a 7f be 59 60 8b be
       1.1075231 0.4530667 -0.24930845 -0.27221945
0000e0 95 0d 95 bf eb 47 40 3f fe 5e 93 3f a4 90 a4 bf
       -1.164477 0.7510974 1.1513364 -1.2856641
0000f0 e8 92 25 bf 70 87 72 be 36 b4 3f bf da 78 a5 be
       -0.64677286 -0.23684478 -0.74884355 -0.32318765
000100 9b 55 b0 3e 02 f9 40 bf 4c 7e 0e 3f fe a2 6d bf
       0.34440312 -0.75379956 0.55661464 -0.9282683
000110 9b e0 48 3f 40 99 b8 3d 6c f0 75 bf 50 8a 34 bf
       0.7846772 0.09013605 -0.9606998 -0.7052355
000120 2e 36 82 3f 05 af cd bd 72 9e 36 3f df 33 ba be
       1.0172784 -0.10043148 0.7133552 -0.363677
000130 1d d9 c3 be ed a5 8d 3f 1e e6 86 be 40 f1 2e be
       -0.38251582 1.1066262 -0.2634744 -0.17084217
000140 9c 3a 16 bf f4 f8 80 3f f8 8f 0f bf d2 14 99 3f
       -0.5868318 1.0075974 -0.56079054 1.1959479
000150 37 50 c5 3f 52 39 4d 3f 44 60 a1 be 66 9c 40 be
       1.5415105 0.8016559 -0.31518757 -0.18809661
000160 5c 61 28 3f ef 2a e4 be 1e 34 b5 3e c2 af 9a be
       0.6577356 -0.44564006 0.35391325 -0.30212218
000170 d6 ed 10 bf 11 20 ad 3f a2 cd b6 bf f6 f3 91 bf
       -0.5661291 1.3525411 -1.4281504 -1.1402576
000180 18 8a 98 3e db 8f af be 36 2f 8b 3e ec e7 c2 be
       0.29792857 -0.3428944 0.27184457 -0.38067567
000190 a7 5a 12 bf e2 e1 68 3b 1b e2 7a be ae 30 89 3f
       -0.57169574 0.0035535027 -0.24500315 1.0717981
0001a0 fe fc f9 3e 67 7e 8e be ce fc ca 3d ca 64 8e 3e
       0.4882583 -0.27830812 0.099115 0.2781127
0001b0 6b b7 49 bf 18 ec 05 be 60 cd a7 3d a3 59 d4 be
       -0.787955 -0.13078344 0.08193469 -0.41474637
0001c0 1b 04 61 bf ee b1 15 be 1e 58 41 be 44 bb 3d be
       -0.8789689 -0.14618656 -0.1888127 -0.18528467
0001d0 0c dc 81 3f b8 76 7b 3f 98 65 a1 bd 5a fd 86 3e
       1.0145278 0.98228025 -0.078807056 0.26365167
0001e0 85 04 64 3f aa a5 64 3f 0d f0 9f 3e 21 d1 25 3f
       0.89069396 0.89315283 0.31237832 0.6477223
0001f0 e0 f7 62 be 8d db 1f bf 28 c3 ef be 6f 0c 58 bf
       -0.2216487 -0.6244438 -0.4682858 -0.8439397
000200 4b 61 0c be 79 7e 09 3d a6 9c 9d be 00 d3 71 3f
       -0.1370899 0.03356788 -0.30783576 0.94462585
000210 32 be 9e 3f 61 5c cd bf f2 e0 0f bf 52 5c cf be
       1.2401793 -1.6043817 -0.56202614 -0.40500122
000220 f9 9a 82 bf 9e b4 a3 be 78 07 35 bf ab 54 82 bd
       -1.0203544 -0.31973737 -0.7071452 -0.063638054
000230 c4 01 89 be aa 70 c2 bf 86 71 59 3e de 14 d3 be
       -0.2675916 -1.5190632 0.21234712 -0.41226858
000240 42 6e 2d bf 88 82 c3 bf 47 ac 5b bf 3c a4 38 be
       -0.67746365 -1.527421 -0.8580975 -0.180314
000250 25 a7 f1 3e da 14 5b 3e d5 5b be be d0 71 ce 3b
       0.47197834 0.21394673 -0.37179437 0.0063001886
000260 0e 9d 14 3f e7 d3 84 be 03 3c 2f bf 35 36 dd 3f
       0.58052146 -0.2594292 -0.68450946 1.7282168
000270 f6 a2 bc be 5b 37 5c 3f 01 93 7e 3e 8c 34 12 3f
       -0.3684308 0.86021966 0.24860765 0.5711143
000280 b7 7c 8d be 81 20 92 3d 84 5f 88 3e 2e 1f f0 be
       -0.27634212 0.07135106 0.26635373 -0.46898788
000290 1d 78 25 3f 67 04 3c 3e 16 68 fa bc 5c cb f5 bd
       0.64636403 0.18361054 -0.03056721 -0.12001678
0002a0 8f a9 88 3f 8b b8 2e 3f bb 90 03 c0 d5 1f 15 3e
       1.0676745 0.6825034 -2.0557086 0.14562924
0002b0 53 5f 12 3f 35 a0 13 be 9b 5f 43 3f cc 14 20 bf
       0.57176703 -0.14416583 0.7631776 -0.62531734
0002c0 15 39 94 3d 29 43 c6 be ec 71 2c 3f c5 9f 9c bf
       0.0723745 -0.38723114 0.6736133 -1.2236258
0002d0 28 d1 06 be a1 07 9a bf d3 08 45 bf cd 79 68 3c
       -0.13165724 -1.2033578 -0.7696659 0.014189196
0002e0 ac b9 ef 3e 17 6d 92 bf 0b 24 81 3f d8 36 e7 3f
       0.46821344 -1.1439542 1.0089124 1.8063612
0002f0 8c 79 01 3f c8 87 cf 3d cb 40 3e bf fb 58 2d be
       0.5057609 0.1013332 -0.74317616 -0.16928475
000300 76 6d 9c bf e9 b5 ae bd 5a 38 f8 be f6 8f 88 be
       -1.2220905 -0.0853079 -0.48480493 -0.26672333
000310 84 c3 07 c0 d1 88 5d bf c1 29 19 3f 95 53 3f bf
       -2.1213083 -0.8653689 0.59829336 -0.7473691
000320 df 39 df bf 81 db 83 3e e5 1b 9a 3e 54 41 a0 bf
       -1.7439536 0.25753406 0.30099407 -1.2519937
000330 93 77 0c bf a2 ca 96 3e 2e b8 f2 3d d7 43 83 be
       -0.54869956 0.29451472 0.11851536 -0.25637695
000340 75 9c 20 3f fd 78 96 bf c7 0f 69 3e 35 0c 43 bf
       0.62738734 -1.1755673 0.22759925 -0.761905
000350 43 95 c5 3d 06 7c 04 40 ef 37 29 3e 27 0b 36 3d
       0.0964761 2.0700698 0.16525243 0.04444423
000360 a5 9f b0 3e c5 74 3c 3e af b3 58 3d 92 c0 b1 bd
       0.344968 0.18403919 0.052905735 -0.08679308
000370 83 5f 8c bc 90 56 64 3f a7 19 3f c0 5b 37 b8 be
       -0.017135387 0.89194584 -2.9859407 -0.35979733
000380 31 83 bb be eb 32 5a 3f c1 ce 36 3e 51 97 ea be
       -0.3662353 0.85233945 0.17852308 -0.4581857
000390 42 33 fe 3e f1 2a 77 bd 09 17 30 bf a8 bd b1 3e
       0.49648482 -0.060343686 -0.6878515 0.3471501
0003a0 cf 20 85 3e 9d 7a 55 be 7d 29 93 bf 87 03 25 3f
       0.26001593 -0.20847555 -1.1497036 0.6445851
0003b0 98 07 90 3f 1a ab 0b 3f af 8e af be 7a ef db bd
       1.1252317 0.54557955 -0.34288546 -0.10739036
0003c0 b2 59 49 bd d6 31 2c 3f 6f 24 18 bf 0e 69 4f 3f
       -0.049157806 0.67263544 -0.59430593 0.81019676
0003d0 ac 6c 80 be ef 1d 80 bf 15 34 d7 3d 80 64 82 bf
       -0.2508291 -1.0009135 0.10507981 -1.018692
0003e0 a3 02 bc bd a1 a6 a0 3e db e8 b7 be 22 ef 4c bf
       -0.091801904 0.31377128 -0.35919842 -0.8005239
0003f0 2e 5c 2a bf e1 32 32 bd a3 ee 1e bf b3 0d 8f 3e
       -0.66546905 -0.043505553 -0.6208288 0.2794014

fc1.bias f4 [4]
000000 38 36 68 3e 50 73 68 be 41 80 06 3f 2e a8 06 bf
       0.22676933 -0.22700238 0.5253945 -0.5260037
