08/check_point_epoch_7.pth (torch, 6055 bytes, 2 tensors)

fc1.weight f4 [4, 300]
00000000: 2fd4 f5be 3bb3 74bd 28c9 10be 154b 513f
00000010: 95ec 8d3e 90ad 2ebf ef2c 47bf 7cc3 003f
00000020: 6188 2f3f 44d5 01be 5737 2abe bec9 9a3f
00000030: 8b2f c73e fbda a43c 961d 49bf f1c3 4a3e
00000040: 274b 4cbe 82ba 22bf e024 563f 677a 20be
00000050: fe45 b03e a7c5 13bf cc5e 7b3e f56b fdbe
00000060: bb94 413f cd32 b13f 6db7 11be 9674 163e
00000070: e722 723e a4ed 6b3f 7437 ea3e a87d 5bbf
00000080: 2229 db3e 1200 39bf 5ba1 03bf f819 8c3f
00000090: 6b92 033f 92ad 98bd 8ada 603e 5a9e 12bf
000000a0: 3187 3b3d 757c 603e 3d7f 0640 bbd4 27bf
000000b0: a43c 96bf b55c b7be f686 d7be 7b42 e1bd
000000c0: 35a5 8dbd 54a6 ec3d 92ec 843f fa91 27bf
000000d0: cb53 8c3f c1ad e13e 2010 80be fba8 8cbe
000000e0: f382 95bf 74b2 393f 2e0e 963f ff51 a8bf
000000f0: a59e 24bf 7851 8bbe 0d51 42bf 59a2 aabe
00000100: 9eac a83e 52b3 43bf 361c 153f 64d1 6dbf
00000110: 3b8f 453f 4775 a63d 95c2 7cbf 3ce4 38bf
00000120: 60f0 853f c934 afbd d70e 3a3f 916d babe
00000130: 7f23 bfbe 3540 8f3f 028f 80be 4d79 25be
00000140: f86a 1ebf 4053 823f 3dfa 10bf 3987 9b3f
00000150: e9c9 c43f 0871 563f b3b8 a4be f742 29be
00000160: 7e9f 283f 4aaf e8be 0678 b43e 66b0 a1be
00000170: f72d 18bf 95dd ac3f 607d bcbf 2465 93bf
00000180: 4aec 9a3e b5f4 b2be ce45 8d3e d6e9 cebe
00000190: cfb2 15bf 34d4 13bb 2641 7fbe 9424 8c3f
000001a0: 8554 f93e 2d6f 86be 57c1 c13d 3bb3 993e
000001b0: c687 47bf 7dec e5bd 0fb3 8d3d 9549 d5be
000001c0: a9fc 61bf aa34 0ebe 0e04 52be beee 40be
000001d0: 7742 813f 3c4c 7a3f 5f25 84bd 1729 773e
000001e0: 0d67 613f 8fcd 653f 8076 933e 6c2c 253f
000001f0: 5b79 7bbe 2c32 26bf 405f f3be 835a 5cbf
00000200: ec20 28be 19d7 103c b536 9abe 36a4 753f
00000210: 88e7 9d3f 27bc d0bf 21dd 11bf d909 c7be
00000220: afc9 82bf 767b a0be 91ca 34bf e466 84bd
00000230: 5eda 84be 6d4b c6bf 5f55 453e 65c6 d4be
00000240: 4ce8 34bf c9a0 cabf d021 5fbf 9455 3cbe
00000250: 012b e23e a346 533e 99e3 c7be 7bd7 f9bb
00000260: f436 1b3f 477a 74be fe38 2fbf 7024 de3f
00000270: e07c b6be 68e8 563f 04bb 843e 86bc 153f
00000280: 8982 93be 631f 6d3d def6 6f3e 0f91 ffbe
00000290: 465d 293f 44a1 123e c980 16bd 444e d4bd
000002a0: 406b 873f 0d0e 353f e53e 04c0 f8e0 183e
000002b0: d732 1a3f c595 12be baa0 4b3f 1a55 27bf
000002c0: 8e1c bd3d 11f2 bcbe 4d0a 353f deef 9cbf
000002d0: db8a 01be 8f58 9dbf 5ec4 45bf 6d47 943a
000002e0: a9db e83e e750 93bf 0149 853f 028a eb3f
000002f0: 883c 033f 1064 833d fc1b 44bf cfe3 2fbe
00000300: b756 9dbf 5a1e 73bd b9da ecbe 5cea 80be
00000310: 9b44 0ac0 9987 5ebf 693c 163f fcd8 44bf
00000320: 2d0c e2bf c9cd 7d3e 7986 9e3e d0d0 a2bf
00000330: cb42 11bf bed1 933e 8730 0b3e d8a4 9ebe
00000340: 69c1 1d3f e30b 9bbf 0c14 353e 209d 45bf
00000350: 510e e53d ced5 0540 1681 1a3e 8881 963c
00000360: eaf8 b13e 8f41 353e 73bd 513d 00c6 85bd
00000370: 56bc 3bbc 6e19 683f c810 42c0 f5df b2be
00000380: dd1d b3be 2ea9 593f cba1 443e cdfd f1be
00000390: 6bcc f43e daaf 2bbd 3348 36bf c909 b03e
000003a0: 0fc8 843e 1aba 73be e382 92bf 2828 283f
000003b0: bec7 913f 4192 0a3f e219 afbe 2095 dcbd
000003c0: c98d 7dbd 9a50 283f b646 1bbf 5c85 543f
000003d0: 67e2 70be dcc1 83bf 636b ea3d 8f10 86bf
000003e0: c1ec fcbd 0fe1 ab3e 9a05 d6be 1235 53bf
000003f0: 8cbf 2cbf e597 a5bc d12d 20bf 972e 983e
-0.48013446 -0.05974124 -0.14139235 0.8175519 0.2771956 -0.68233585 -0.7780294 0.50298285
0.6856747 -0.1267901 -0.16622673 1.2092817 0.3890346 0.02012395 -0.7856077 0.19801308
-0.19950543 -0.6356584 0.83650017 -0.15671693 0.344284 -0.5772347 0.24547881 -0.49496427
0.7561757 1.3843628 -0.14230128 0.14692912 0.23646127 0.92159486 0.45745432 -0.8573861
0.4280482 -0.7226573 -0.51418084 1.0945425 0.5139529 -0.07454981 0.21958366 -0.57272875
0.045783225 0.21922477 2.101516 -0.65558976 -1.1737256 -0.35812917 -0.42095155 -0.10999008
-0.06916276 0.11555162 1.0384696 -0.6545712 1.0963072 0.44077876 -0.25012302 -0.27472672
-1.1680588 0.7253792 1.1723077 -1.3150023 -0.6430457 -0.27210593 -0.75904924 -0.33326986
0.32944196 -0.76445496 0.5824617 -0.9289763 0.7717168 0.08127838 -0.9873441 -0.7222326
1.0463982 -0.0855499 0.72678894 -0.36411718 -0.3733177 1.119147 -0.25109106 -0.16159554
-0.6188197 1.0181656 -0.56631833 1.2150642 1.5374118 0.8376622 -0.32172164 -0.16529451
0.65868366 -0.45446235 0.3524782 -0.31579894 -0.59445137 1.3505121 -1.4725761 -1.1515241
0.302584 -0.34952322 0.2759232 -0.40412778 -0.58475965 -0.0022556903 -0.24927196 1.0948663
0.48697296 -0.26256695 0.09460705 0.30019554 -0.7794155 -0.11226747 0.06918918 -0.416577
-0.88276154 -0.13887277 -0.20509359 -0.18841073 1.0098408 0.97772574 -0.064524405 0.24136768
0.8804787 0.8976678 0.28801346 0.6452091 -0.24558012 -0.64920306 -0.47533607 -0.8607561
-0.16418809 0.008840346 -0.30119863 0.9595369 1.2336283 -1.630742 -0.5697804 -0.388747
-1.0217799 -0.31344193 -0.7062159 -0.06464937 -0.2594785 -1.5491768 0.19270848 -0.41557613
-0.70666957 -1.5830318 -0.8716097 -0.1839202 0.44173434 0.20632415 -0.3904083 -0.007624564
0.60630727 -0.2387477 -0.6844634 1.735487 -0.35642147 0.83948374 0.25923932 0.5849079
-0.28810528 0.05789126 0.23434016 -0.49915358 0.6615795 0.1431933 -0.036743913 -0.103664905
1.0579605 0.70724565 -2.0663388 0.14929569 0.60233825 -0.14314945 0.79542124 -0.6536423
0.09233962 -0.36903432 0.7071884 -1.2260702 -0.12650625 -1.2292651 -0.7725276 0.001131279
0.45480087 -1.1509064 1.0412904 1.8401492 0.5126424 0.0641557 -0.766052 -0.17176746
-1.2292088 -0.059355117 -0.46260622 -0.25178802 -2.1604373 -0.86925656 0.5868593 -0.7689359
-1.7659966 0.24785532 0.3096197 -1.2719975 -0.56742543 0.28870958 0.1359273 -0.3098514
0.61623245 -1.2113003 0.17683429 -0.7719288 0.11184371 2.0911746 0.15088305 0.018372312
0.3476022 0.1770079 0.051206063 -0.06531906 -0.011458477 0.906638 -3.0322742 -0.3493649
-0.3498372 0.8502377 0.19202344 -0.47263947 0.4781221 -0.041915752 -0.7120392 0.34382465
0.25933883 -0.23801461 -1.1446193 0.65686274 1.1389081 0.54129416 -0.34199435 -0.10770631
-0.061902795 0.6574799 -0.6065477 0.8301599 -0.23523866 -1.0293536 0.11446264 -1.0473803
-0.12349845 0.33570144 -0.4180115 -0.82502854 -0.6747978 -0.02021403 -0.6256991 0.29723045

fc1.bias f4 [4]
00000000: 1afd 603e 5353 62be 1f1f 0b3f ce00 0bbf
0.2197155 -0.22102098 0.5434436 -0.542981
