08/check_point_epoch_1.pth (torch, 6055 bytes, 2 tensors)

fc1.weight f4 [4, 300]
000000 84 71 f2 be 7a 42 9d bd 07 93 06 be e6 e5 49 3f
       -0.4735223 -0.07678695 -0.13142024 0.7886642
000010 57 bc 9a 3e f4 6c 31 bf 5a 81 46 bf 52 df f5 3e
       0.30221817 -0.69306874 -0.77541125 0.48021942
000020 11 13 2b 3f b0 97 0a be a4 5a 3e be 05 69 9a 3f
       0.6682597 -0.13534427 -0.18589264 1.20633
000030 08 2e b9 3e dd 8f 85 3d 71 c6 40 bf 6c 12 45 3e
       0.36167932 0.0652158 -0.753028 0.19245309
000040 5e 34 32 be 77 df 23 bf e6 31 54 3f e0 c6 d6 bd
       -0.17402789 -0.64012855 0.8288864 -0.10487151
000050 06 a6 b2 3e f9 9c 22 bf 80 ce 4d 3e 8b 51 f8 be
       0.3489229 -0.6352077 0.20098305 -0.48499712
000060 36 30 41 3f 98 88 ab 3f 56 06 2f be e0 f9 28 3e
       0.7546419 1.340106 -0.1709226 0.1650157
000070 af 7a 80 3e 84 1e 64 3f 1f 08 f0 3e 83 04 5a bf
       0.250936 0.89109063 0.46881196 -0.85163134
000080 a4 f3 ce 3e 20 a6 34 bf 91 62 fc be 67 a0 89 3f
       0.40420258 -0.70565987 -0.4929395 1.0752076
000090 13 6a 07 3f 10 1d e5 bd 13 a0 28 3e 76 48 18 bf
       0.5289623 -0.11187184 0.16467313 -0.59485567
0000a0 cd 6e 5d 3d 85 59 41 3e c4 61 04 40 32 ea 23 bf
       0.054060746 0.18881805 2.0684671 -0.6402923
0000b0 d6 e0 8b bf b6 ee c3 be a1 94 dd be a5 0e b4 bd
       -1.092799 -0.3826806 -0.43277457 -0.08791856
0000c0 90 e6 58 bd dc 83 0c 3e 37 a0 76 3f 6d 2d 20 bf
       -0.052954257 0.13722175 0.9633822 -0.62569314
0000d0 37 ab 8e 3f 45 05 eb 3e ef d4 7e be bf 32 8a be
       1.1146001 0.45902458 -0.24885915 -0.2699184
0000e0 74 ce 94 bf 46 a7 43 3f b4 e3 91 3f d0 92 a2 bf
       -1.1625504 0.76427114 1.1397614 -1.2701054
0000f0 4c 09 26 bf b2 55 60 be fd 58 3e bf c0 dc a2 be
       -0.64857936 -0.2190769 -0.74354535 -0.31809044
000100 cb 62 b4 3e be a5 3f bf bb 10 0b 3f 75 8e 6d bf
       0.35231623 -0.7486228 0.54322404 -0.927955
000110 c3 b9 4a 3f e2 d3 c1 3d c3 76 72 bf a1 73 32 bf
       0.791897 0.094642416 -0.94712466 -0.69707686
000120 c7 35 80 3f bc 87 dd bd a9 fb 34 3f a1 00 ba be
       1.0016412 -0.10816905 0.706965 -0.36328605
000130 1f 74 c6 be aa b2 8c 3f cc 37 8a be 3f 14 34 be
       -0.38760468 1.0992024 -0.26995695 -0.17585848
000140 74 ee 11 bf 44 4f 80 3f e3 bc 0e bf 3f ce 97 3f
       -0.57004476 1.002419 -0.5575697 1.1859816
000150 fb 83 c5 3f 61 37 48 3f 7c 47 9f be fe e4 4c be
       1.5430902 0.782095 -0.31109226 -0.20009229
000160 bf 7d 28 3f 01 f8 e1 be 73 fc b4 3e 2c d6 96 be
       0.65816873 -0.44134524 0.35348853 -0.29460275
000170 39 c7 0c bf 62 50 ad 3f 8e dd b3 bf 6c 0e 91 bf
       -0.5499149 1.3540156 -1.4051988 -1.1332526
000180 b4 9d 97 3e 4a 87 ad be e0 a7 89 3e f4 b2 bc be
       0.29612505 -0.3389228 0.2688589 -0.3685528
000190 4c 7c 10 bf c4 22 cd 3b 97 da 79 be 13 9a 87 3f
       -0.5643966 0.006260248 -0.24399792 1.0593895
0001a0 a9 23 fa 3e cd 2b 92 be 28 70 d0 3d 26 99 88 3e
       0.48855332 -0.28549042 0.10177642 0.26679343
0001b0 35 0e 4b bf 35 49 0f be a9 83 b4 3d 62 bd d3 be
       -0.79318553 -0.1399277 0.08814175 -0.41355425
0001c0 dc 4c 60 bf 70 e2 19 be ad 5d 38 be fe 24 3c be
       -0.8761728 -0.15027785 -0.18004484 -0.18373486
0001d0 ec 3c 82 3f 83 1c 7c 3f 24 4e b2 bd cd 7b 8c 3e
       1.0174842 0.98481005 -0.087063104 0.27438203
0001e0 bb 83 65 3f f3 fb 63 3f e8 5c a6 3e f9 fb 25 3f
       0.8965413 0.8905632 0.32492757 0.64837605
0001f0 8c 37 56 be bd 5d 1c bf 87 0d ee be ad 8e 55 bf
       -0.20919627 -0.61080533 -0.46494696 -0.8342083
000200 75 ca fb bd cf 5e 3d 3d 8d 7d 9f be b2 b3 6f 3f
       -0.12294475 0.046232995 -0.31150475 0.9363357
000210 eb 3e 9f 3f 8b 95 cb bf 80 c6 0e bf ff d0 d3 be
       1.2441076 -1.5905012 -0.55771637 -0.4137039
000220 7b 93 82 bf 76 85 a5 be 68 14 35 bf ff 80 80 bd
       -1.0201257 -0.32328385 -0.7073426 -0.06274604
000230 f4 7f 8b be 46 4f c0 bf fc d0 63 3e 1f 68 d2 be
       -0.27246058 -1.5024192 0.2224769 -0.41095063
000240 18 84 29 bf 78 db bf bf 7d d5 59 bf ca 7b 36 be
       -0.66217184 -1.4988852 -0.8509138 -0.1782066
000250 bb de f9 3e 9c 7d 5f 3e 51 83 b9 be b0 15 5e 3c
       0.48802742 0.2182526 -0.36233 0.013554975
000260 77 8d 11 3f e3 61 8a be af 15 2f bf 24 c0 dc 3f
       0.56856483 -0.27027807 -0.6839246 1.7246137
000270 09 d4 bf be e2 e5 5e 3f cd 85 79 3e 41 1e 10 3f
       -0.37466457 0.87069523 0.24367447 0.56296164
000280 d4 0e 8a be 1e 19 9f 3d d5 ba 90 3e 37 1f e8 be
       -0.26964438 0.077684626 0.28267542 -0.45336315
000290 c0 74 23 3f 26 bd 51 3e e4 ec e3 bc 2b 3d 03 be
       0.6385002 0.2048231 -0.02782292 -0.12816302
0002a0 4f 3e 89 3f 17 a9 2b 3f 7c 2f 03 c0 bf 3a 13 3e
       1.072214 0.67054886 -2.0497732 0.14377879
0002b0 60 7d 0e 3f d8 b5 14 be 52 f5 3e 3f 46 ec 1b bf
       0.5566006 -0.14522493 0.7459308 -0.609074
0002c0 8f 7a 79 3d d8 f1 ca be d5 03 28 3f 27 85 9c bf
       0.060907897 -0.39637637 0.6563085 -1.2228135
0002d0 2b 39 09 be f0 56 98 bf 69 b8 44 bf b7 9c ae 3c
       -0.13400714 -1.1901531 -0.7684389 0.021314962
0002e0 60 eb f2 3e 7e e8 91 bf b2 19 7e 3f 81 e0 e4 3f
       0.47445202 -1.1399076 0.9925796 1.7881013
0002f0 77 64 00 3f 94 20 f6 3d 90 48 3b bf ea 7f 2b be
       0.501533 0.120179325 -0.73157597 -0.16748014
000300 b7 eb 9b bf 24 70 ca bd 6f 59 fe be 82 fe 8c be
       -1.218131 -0.098846704 -0.49677607 -0.27537924
000310 06 72 06 c0 5d 18 5d bf 03 cd 1a 3f 88 59 3c bf
       -2.1007094 -0.863653 0.60469073 -0.73574114
000320 28 c9 dd bf 82 85 86 3e 77 6f 97 3e a6 df 9e bf
       -1.7327013 0.26273733 0.29577228 -1.2412002
000330 33 d6 09 bf c5 9d 98 3e ad 6b de 3d 06 b4 69 be
       -0.5384247 0.2980787 0.10860381 -0.2282258
000340 69 fc 21 3f 52 0c 94 bf 0f e4 81 3e 5c 96 41 bf
       0.6327577 -1.156626 0.25369307 -0.75620055
000350 cc 68 b6 3d d0 c5 03 40 c3 cb 30 3e 58 a0 6f 3d
       0.08906707 2.0589485 0.17265229 0.058502525
000360 00 ec af 3e 32 e9 40 3e c0 c9 5f 3d 6d 22 c9 bd
       0.3435974 0.18838957 0.054635763 -0.09821019
000370 cd df a6 bc c6 5e 62 3f 19 a3 3d c0 8a 36 bb be
       -0.020370388 0.8842586 -2.9630797 -0.36565048
000380 0b a8 bf be f8 79 5a 3f dd 71 2f 3e b8 91 e6 be
       -0.37432894 0.8534236 0.17133279 -0.4503305
000390 d0 02 01 3f 27 ca 90 bd 11 d7 2c bf 75 b6 b2 3e
       0.50394917 -0.070698075 -0.67515665 0.3490483
0003a0 c4 64 85 3e 76 3f 45 be 6b 91 93 bf 1b 47 23 3f
       0.2605344 -0.1926249 -1.1528753 0.63780373
0003b0 5f 26 8f 3f 6e 54 0c 3f 10 fe af be 1b 77 d9 bd
       1.1183585 0.5481633 -0.34373522 -0.10618421
0003c0 d2 66 31 bd 6e 76 2e 3f 7c 61 16 bf a4 c2 4c 3f
       -0.043310948 0.6814946 -0.587425 0.799845
0003d0 fa 97 84 be bb 91 7c bf c1 77 cd 3d 5c 57 80 bf
       -0.258972 -0.9865987 0.10032607 -1.002666
0003e0 0c 0b 9b bd bd 3b 9b 3e f1 4b a8 be 9f 94 49 bf
       -0.075704664 0.30319014 -0.3287044 -0.787424
0003f0 d1 1d 29 bf c3 82 62 bd 54 4a 1e bf c8 88 8a 3e
       -0.6606112 -0.055300485 -0.61832166 0.2705748

fc1.bias f4 [4]
000000 b8 e6 67 3e 37 48 71 be 01 1f 07 3f d6 fd 04 bf
       0.22646606 -0.23562704 0.52781683 -0.5194982
